MNIST_net.pt (torch, 244063 bytes, 10 tensors)

weight f4 [10, 1, 5, 5]
0	0x3e90ffb9	0.283201
1	0xbdc0c47e	-0.09412478
2	0xbe394002	-0.18090823
3	0x3e704fd3	0.2346795
4	0xbdfa0f79	-0.122099824
5	0x3dd15978	0.10222143
6	0xbc4509a1	-0.0120262215
7	0x3e05bd8a	0.13060585
8	0x3e66b1e2	0.22528794
9	0x3be8527d	0.0070899115
10	0x3e0691a0	0.13141489
11	0xbe07dfad	-0.1326892
12	0x3cd0d685	0.025492916
13	0x3d9df658	0.07713002
14	0x3b1feabf	0.0024401394
15	0x3e76e1c5	0.24109562
16	0x3e7291d1	0.23688437
17	0x3e047e83	0.12938885
18	0x3e0fd338	0.14045417
19	0xbdad0731	-0.08448637
20	0x3c6dd99c	0.014517214
21	0x3dcf0964	0.10109213
22	0x3c12fd6b	0.008971552
23	0xbd806e63	-0.062710546
24	0x3e8427d3	0.25811633
25	0x3e35b574	0.17745
26	0x3cf57fc2	0.029968146
27	0x3df29d18	0.118463695
28	0xbb6d995f	-0.0036254746
29	0xbe835812	-0.2565313
30	0x3dedd506	0.116128966
31	0x3e889991	0.26679662
32	0xbe552086	-0.20813188
33	0xbe2eb1bd	-0.1705999
34	0xbebe8d46	-0.37217158
35	0x3e5ec0ab	0.21753184
36	0x3e392b37	0.18082891
37	0xbba36f3c	-0.0049876254
38	0xbe50df34	-0.20397645
39	0xbe9e41bc	-0.30909526
40	0x3e4042d4	0.18775493
41	0x3e0c5048	0.137025
42	0x3eb4eeab	0.3533834
43	0x3e38a777	0.18032633
44	0xbbf48e42	-0.0074632475
45	0x3e301e4b	0.17199056
46	0x3e95a18f	0.29224822
47	0x3e7205c4	0.23635012
48	0x3dd8e9be	0.10591458
49	0x3e75100a	0.239319
50	0xbe04310c	-0.12909335
51	0xbd8b7405	-0.06809238
52	0xbdabec1e	-0.08394645
53	0xbeb36189	-0.3503535
54	0x3ce3d292	0.027810369
55	0xbe0a8fda	-0.13531438
56	0xbea3af25	-0.31969562
57	0xbe8d1533	-0.27555236
58	0x3d763b4c	0.060115144
59	0xbd8d61fb	-0.06903454
60	0x3e164d1b	0.14677851
61	0x3e8b3c9e	0.27194685
62	0x3e8bd06f	0.2730746
63	0x3e760a08	0.24027264
64	0x3e329418	0.17439306
65	0x3e842eb2	0.25816876
66	0x3e95a3eb	0.29226622
67	0x3d2f618b	0.042817634
68	0xbd8484a8	-0.06470615
69	0xbe0c9b23	-0.13731055
70	0x3def16df	0.11674284
71	0x3cc079a4	0.023495503
72	0xbea0f935	-0.3144013
73	0x3e42878c	0.1899702
74	0x3e521ae7	0.20518075
75	0xbdddfc8e	-0.108391866
76	0xbe4c959f	-0.19978951
77	0xbedf705d	-0.43640414
78	0xbea89e88	-0.3293345
79	0xbe08c56e	-0.13356563
80	0xbe08fcaa	-0.13377634
81	0xbe80551b	-0.2506493
82	0xbe768d3c	-0.24077314
83	0xbedaccc9	-0.42734364
84	0xbe57f264	-0.21088558
85	0xbe1a64e9	-0.15077557
86	0xbe82c5b9	-0.25541475
87	0xbd58ef65	-0.05296268
88	0x3e70ae22	0.23503926
89	0x3e8ffe7c	0.28123844
90	0x3eaa5904	0.3327104
91	0x3e9ec9b9	0.31013277
92	0x3db2adbc	0.087245435
93	0x3eca1a91	0.39473394
94	0x3d305552	0.043050118
95	0x3e85cca9	0.26132706
96	0x3e9d5a88	0.30733132
97	0x3dec757a	0.115458444
98	0x3e82bb24	0.25533402
99	0x3dbead44	0.093103915
100	0x3ddf2b70	0.10896957
101	0x3d43dca7	0.047817852
102	0x3e0ce17a	0.13757887
103	0xbdfd6e97	-0.12374609
104	0x3e02ca15	0.127724
105	0xbe0c2880	-0.13687325
106	0x3e7281e5	0.23682363
107	0x3e9877d0	0.2977891
108	0x3dd2eca5	0.102990426
109	0x3e1611c3	0.14655213
110	0x3e5b2fb3	0.21404915
111	0x3e3271fd	0.17426296
112	0x3e9031b4	0.2816292
113	0x3ea9ed96	0.33189076
114	0xbcc25f40	-0.02372706
115	0x3e19c0db	0.15014975
116	0xbd22d895	-0.03975733
117	0x3e1b2375	0.15150245
118	0x3d271779	0.04079387
119	0xbdbdf13f	-0.0927453
120	0xbde84b7c	-0.113425225
121	0xbe8c72e6	-0.2743141
122	0x3c796372	0.0152214635
123	0xbd8b44ec	-0.06800255
124	0x3e562cd4	0.20915538
125	0xbd0eeb3e	-0.034892313
126	0xbd36c0a2	-0.044617303
127	0x3d67ac46	0.056560777
128	0x3b58a2f6	0.0033056117
129	0xbd85c064	-0.06530836
130	0xbeabc314	-0.3354727
131	0x3c57af59	0.013164365
132	0x3e9bdfda	0.30444223
133	0x3e117c88	0.14207661
134	0xbddd75f2	-0.10813512
135	0xbe75feba	-0.24022952
136	0x3c39b077	0.011333576
137	0x3ec05526	0.37564963
138	0xbc56f62c	-0.013120215
139	0xbde61c52	-0.112358704
140	0xbe32fbff	-0.17478941
141	0xbc4568ea	-0.012048939
142	0x3e6c77b9	0.23092546
143	0xbddfdd32	-0.109308615
144	0xbe5a9e30	-0.21349406
145	0xbd58365d	-0.05278622
146	0x3e4a86ae	0.19777939
147	0x3e42ab13	0.19010572
148	0xbd20821b	-0.03918658
149	0x3df542d3	0.11975636
150	0x3dd3d2b5	0.103429236
151	0x3db5fa61	0.088856466
152	0x3dad113d	0.084505536
153	0xbe966a74	-0.29378092
154	0xbe489310	-0.1958735
155	0x3deaf5e0	0.11472678
156	0x3deaa72a	0.11457665
157	0x3e4f8626	0.20266017
158	0xbd831535	-0.06400529
159	0xbe6a76eb	-0.22896926
160	0xbde1c5aa	-0.110240296
161	0x3e907a26	0.28218192
162	0x3ecb06c7	0.39653608
163	0x3e18741e	0.14888045
164	0xbdf925a7	-0.12165385
165	0x3d80591e	0.06266998
166	0x3e390ba9	0.18070854
167	0x3e618b2b	0.22025745
168	0x3ecc61ab	0.39918265
169	0x3dcbf231	0.09958304
170	0xbe503036	-0.20330891
171	0xbe0b6069	-0.13610996
172	0xbe4844bd	-0.19557472
173	0x3e93c082	0.2885781
174	0x3ea83e2e	0.3285994
175	0xbd6e2e24	-0.058149472
176	0x3e6348b7	0.22195707
177	0x3dc578ad	0.09642158
178	0x3e8b4dcc	0.27207792
179	0xbe1e34a7	-0.15449773
180	0x3dd21dc2	0.10259582
181	0x3e358572	0.17726687
182	0x3e4b384e	0.19845697
183	0x3e06a566	0.13149032
184	0xbeca29f7	-0.39485142
185	0x3d5659f5	0.052331883
186	0x3e969212	0.29408318
187	0x3e68335e	0.22675845
188	0xbe534048	-0.2062999
189	0xbeda37e6	-0.42620772
190	0x3e4a35f5	0.19747145
191	0x3e973a37	0.29536602
192	0xbd0cf6fd	-0.034415234
193	0xbed3f54d	-0.41398087
194	0xbe683974	-0.22678167
195	0x3e61edb5	0.22063334
196	0x3d724f92	0.059157915
197	0xbe65b33f	-0.22431658
198	0xbed9b5f3	-0.4252163
199	0xbe6dce4a	-0.23223224
200	0xbeb2ede1	-0.34947112
201	0xbec64b99	-0.3872955
202	0xbe92a1ff	-0.28639218
203	0x3cc2cadc	0.023778372
204	0x3ebbd19b	0.36683354
205	0xbed941e5	-0.42433086
206	0xbe49d351	-0.19709517
207	0xbd3e0382	-0.046390064
208	0x3e8ded11	0.2771993
209	0x3de684b4	0.1125578
210	0xbea8c399	-0.3296173
211	0xbe1d7efc	-0.15380472
212	0xbcb24146	-0.02175964
213	0x3e9cef52	0.30651337
214	0x3e1bbb6d	0.15208216
215	0xbe7ede07	-0.24889384
216	0xbd4aa238	-0.04947111
217	0x3dd33b58	0.10314053
218	0x3e09cfb0	0.13458133
219	0x3dbb5de6	0.09148769
220	0xbe030f8a	-0.12798896
221	0xbda1d24b	-0.07901438
222	0x3e6c13b2	0.23054388
223	0x3ebb8cb8	0.36630797
224	0x3edd4387	0.43215582
225	0xbe094918	-0.1340679
226	0x3e740f1b	0.23833887
227	0x3eadc39d	0.33938304
228	0xbddde0a3	-0.10833862
229	0xbe9f514d	-0.31116715
230	0x3e910c25	0.28329578
231	0x3ebfe145	0.37476555
232	0x3e11ade0	0.14226484
233	0xbe9a71ae	-0.30164856
234	0xbe6e7a66	-0.23288879
235	0x3e448514	0.1919139
236	0x3d0f6678	0.03500983
237	0x3e3a1c71	0.18174912
238	0xbe22349d	-0.15840383
239	0xbe999c71	-0.30002168
240	0x3caeecb9	0.021353113
241	0x3e1870c8	0.14886773
242	0x3d69f0ab	0.057114284
243	0xbe4a9d7c	-0.19786638
244	0xbcc87eed	-0.024474585
245	0xbd9f9c6c	-0.07793507
246	0x3cbc9f59	0.023025202
247	0x3e4986bb	0.19680302
248	0x3d4aa73e	0.0494759
249	0xbe7cc910	-0.24686074

bias f4 [10]
0	0xbda2ff93	-0.07958903
1	0xbd6861df	-0.056733962
2	0x3c755355	0.014973481
3	0x3db593e7	0.08866101
4	0x3a0ba9f8	0.00053277565
5	0xbe0ce8e0	-0.1376071
6	0x3a3f759f	0.00073035987
7	0xbd07c1de	-0.03314387
8	0x3d97f851	0.074204095
9	0xbd1cbc3f	-0.038265463

weight f4 [20, 10, 5, 5]
0	0x3d8fc0ff	0.07019233
1	0xbc6a6c9c	-0.014308121
2	0xbc2966bf	-0.010339438
3	0x3c57b7ea	0.013166407
4	0x3cde99f9	0.02717303
5	0x3d7d6b06	0.061869644
6	0x3c4d2756	0.012521585
7	0x3d3ddd64	0.046353713
8	0x3d968777	0.073500566
9	0xbd027167	-0.03184643
10	0xbe1873b7	-0.14887892
11	0xbe35b43b	-0.17744534
12	0xbe24896f	-0.16068052
13	0xbd1d5002	-0.03840638
14	0xbdb839a4	-0.08995369
15	0xbdc11178	-0.0942716
16	0xbe213a7d	-0.15744968
17	0xbddf70c5	-0.10910181
18	0xbdf3b103	-0.11898997
19	0xbdb762cd	-0.08954392
20	0xbd676133	-0.05648918
21	0x3d7fa199	0.06240997
22	0xbd4b5baa	-0.049647965
23	0xbd13b016	-0.0360566
24	0xba6c35ec	-0.00090107205
25	0x3e1f381c	0.15548748
26	0x3e14be2d	0.14525671
27	0x3de2b007	0.11068731
28	0xbcc705d1	-0.024294766
29	0xbca26075	-0.019821385
30	0x3d3f5d80	0.046720028
31	0xbc8f8068	-0.017517284
32	0x3d2efa85	0.042719383
33	0xbce01995	-0.027355948
34	0x3d3405b0	0.043950737
35	0xbe03a672	-0.12856463
36	0xbd9af525	-0.07566289
37	0xbd8aef6b	-0.067839466
38	0xbd971cff	-0.073785774
39	0xbe033fb3	-0.12817268
40	0xbd2c909c	-0.042130098
41	0xbcd79cbf	-0.02631986
42	0xbd854bbf	-0.06508588
43	0xbd888841	-0.06666613
44	0xbe0683e4	-0.1313625
45	0x3c3b1eb4	0.011420894
46	0x3c5821dc	0.013191666
47	0xbd081e42	-0.03323198
48	0x3b0a3dd9	0.0021093993
49	0x3d1c3897	0.038139906
50	0x3d8bb385	0.0682135
51	0x3dd1efd7	0.10250824
52	0x3d4de971	0.050271455
53	0x3d9d63ba	0.07685037
54	0x3e275e33	0.16344528
55	0xbd898f25	-0.06716756
56	0x3d620ad5	0.05518611
57	0x3d4ea83b	0.050453406
58	0x3dd9796c	0.106188625
59	0xba916845	-0.0011093697
60	0xbe333758	-0.1750158
61	0xbdfdec76	-0.12398617
62	0xbdad96c7	-0.08476024
63	0xbd70b81f	-0.05876934
64	0xbe295bab	-0.16538875
65	0xbd7c4e69	-0.061598215
66	0x3d1c571c	0.03816901
67	0xbd8279c2	-0.0637088
68	0xbca62e35	-0.020285705
69	0xbd024d05	-0.031811733
70	0x3dff5180	0.12466717
71	0x3dfc1631	0.1230892
72	0x3d22aec9	0.03971747
73	0x3da6c427	0.08142882
74	0x3d0a181e	0.033714406
75	0x3de1a193	0.11017146
76	0x3e14eb3d	0.14542861
77	0x3e2fc985	0.17166717
78	0x3e3d8e95	0.18511422
79	0x3e26c167	0.16284715
80	0x3c07a4db	0.008279051
81	0xbcadf86a	-0.021236617
82	0x3dbe1d76	0.09282963
83	0x3dfa4232	0.12219657
84	0xbd3b0756	-0.045661293
85	0xbde3c140	-0.11120844
86	0xbe758261	-0.23975517
87	0xbe1cb4ac	-0.15303296
88	0xbe191915	-0.14950974
89	0xbe2c585b	-0.1683058
90	0x3d12384a	0.035698213
91	0x3debdb32	0.115164176
92	0x3d5a5d24	0.053311482
93	0x3e2c0605	0.16799171
94	0x3de8a953	0.11360421
95	0x3dcc6ec8	0.09982067
96	0x3e07e152	0.13269547
97	0x3de17b72	0.110098734
98	0x3d47447b	0.048649292
99	0xbd084f5b	-0.033278804
100	0xbd817a9d	-0.06322215
101	0xbd8e4893	-0.06947436
102	0xbc6c1459	-0.014409148
103	0x3d911b00	0.07085228
104	0x3d5b68bd	0.053566683
105	0x3d8da114	0.06915489
106	0x3d29bc18	0.041439146
107	0x3df89cb8	0.12139267
108	0x3d8b2ff2	0.06796254
109	0x3d7e94e1	0.0621537
110	0x3b43ea56	0.0029894314
111	0xbd3a0794	-0.045417383
112	0xbd226df6	-0.03965565
113	0xbc22610f	-0.009910836
114	0xbca8285b	-0.020527055
115	0xbd8947ec	-0.06703171
116	0xbde9e72e	-0.11421047
117	0xbe6b6070	-0.22986007
118	0xbe1cbb06	-0.15305719
119	0xbe126e53	-0.14299898
120	0xbc2e9b75	-0.010657181
121	0xbda70fec	-0.08157334
122	0xbc4637f1	-0.012098298
123	0x3c93e4c7	0.018053425
124	0xbd6d89ee	-0.057992868
125	0x3dae2789	0.085036345
126	0xba7afb10	-0.00095741544
127	0x3cf84cc8	0.03031005
128	0x3d0a9ddc	0.033841953
129	0xbc31665b	-0.010827626
130	0x3d484340	0.04889226
131	0xbd1a00c8	-0.0375984
132	0xbc46d7d3	-0.012136417
133	0x3c015898	0.007894658
134	0x3d1ec140	0.038758516
135	0xbd9f56bf	-0.077802174
136	0xbdce9147	-0.10086303
137	0xbd772e32	-0.06034679
138	0xbddb5643	-0.107098125
139	0xbd1f5266	-0.03889694
140	0xbe064063	-0.13110499
141	0xbd58c168	-0.05291882
142	0xbd8fbef2	-0.07018842
143	0xbdd8fbdc	-0.10594913
144	0xbc71a0b5	-0.014747788
145	0x3dd2a379	0.10285086
146	0xbb879c9d	-0.004138543
147	0xbd463ad2	-0.04839594
148	0xbc8b4bc3	-0.0170039
149	0xbcf9b775	-0.030482987
150	0x3dacf9a0	0.0844605
151	0x3da119a0	0.07866216
152	0x3d3841f1	0.04498476
153	0x3ce681ae	0.028138008
154	0x3d9352e8	0.071935475
155	0x3dffc282	0.12488271
156	0x3dd1b0c0	0.102387905
157	0xbb18585c	-0.0023246026
158	0xbd0a3de6	-0.033750437
159	0xbb5281a2	-0.0032120724
160	0xbe3ea3f1	-0.18617226
161	0xbe018788	-0.12649357
162	0xbe1eea5f	-0.15519093
163	0xbe13ed97	-0.14446102
164	0xbdf166f2	-0.117872134
165	0xbd18bea7	-0.037291195
166	0xbe0095b0	-0.12557101
167	0xbe050e67	-0.12993775
168	0xbd87c3e9	-0.06629164
169	0xbe018925	-0.12649973
170	0x3c7d8d7b	0.015475626
171	0x3d9d98ef	0.076951854
172	0xbae0b849	-0.0017144765
173	0xbbb4fd2d	-0.005523345
174	0xbd017b8d	-0.031611968
175	0xbe1e1627	-0.15438138
176	0x3c1c7efb	0.009551759
177	0x3d108e21	0.035291795
178	0x3df28fe0	0.11843848
179	0x3dcba059	0.09942693
180	0xbe1054c1	-0.14094831
181	0x3d462a3a	0.048380114
182	0x3d4634cd	0.0483902
183	0x3dd33c5d	0.10314248
184	0x3e0c6c0d	0.13713093
185	0xbd9bbba1	-0.07604147
186	0xbd93a40b	-0.07209023
187	0xbdcc5aa0	-0.09978223
188	0x3d204a4b	0.03913335
189	0xbe116b89	-0.14201178
190	0xbe1882cb	-0.14893644
191	0xbdb8b8fe	-0.090196595
192	0xbd355934	-0.044274524
193	0xbd30f7f8	-0.04320523
194	0xbe0d109e	-0.1377587
195	0x3e41b663	0.18917231
196	0x3d2f7c8d	0.04284339
197	0x3d41b34c	0.04729013
198	0xbcf57a20	-0.02996546
199	0xbcdb4cd8	-0.02677004
200	0xbb805d54	-0.0039173756
201	0x3d5a356f	0.053273614
202	0x3cdde802	0.027088169
203	0x3dfea75f	0.12434267
204	0x3d9ab74b	0.075544916
205	0xbe661381	-0.22468378
206	0xbd4e7cec	-0.050412104
207	0x3aa4f974	0.001258655
208	0xbd14edff	-0.036359783
209	0x3c929303	0.017892366
210	0xbe0b576b	-0.13607566
211	0xbe15bef2	-0.14623621
212	0xbdcf3df3	-0.10119238
213	0xbe0333f9	-0.12812795
214	0xbd0d139d	-0.034442533
215	0x3cda0bae	0.026616897
216	0x3dda8ca0	0.10671353
217	0x3d8cd553	0.06876626
218	0x3d928b8a	0.07155521
219	0x3da1bb46	0.07897048
220	0x3c9cf6a0	0.019160569
221	0x3df79d59	0.120905586
222	0x3d9a1d05	0.07525066
223	0x3d85145b	0.06498023
224	0xbe085629	-0.13314117
225	0x38ac5f81	8.219388e-05
226	0x3b4a0cdc	0.0030830419
227	0x3c0c38cb	0.008558462
228	0xbd4182bb	-0.047243815
229	0x3cde0c4f	0.027105479
230	0x3c29213d	0.010322866
231	0x3d49c64d	0.04926138
232	0x3c1d036e	0.009583337
233	0x3c173748	0.009229489
234	0x3de4b154	0.11166635
235	0xbdd3be1d	-0.103389956
236	0xbd84f528	-0.06492072
237	0xbd87d2b6	-0.06631987
238	0x3aa6a125	0.001271282
239	0x3c2ed052	0.010669785
240	0xbdcfcfd6	-0.101470634
241	0xbe0d45cd	-0.13796158
242	0xbe3190e4	-0.17340428
243	0xbe04ca06	-0.12967691
244	0xbe5b998f	-0.21445297
245	0x3d1a3c26	0.03765502
246	0x3c1437e1	0.009046526
247	0xbd63f410	-0.055652678
248	0xbc89afff	-0.016807554
249	0xbdc7d32c	-0.09757075
250	0x3cecf34f	0.028924612
251	0xbc0eddec	-0.0087199025
252	0x3c31ed67	0.010859824
253	0xbb8c571a	-0.0042828443
254	0x3ca9a22c	0.020707212
255	0x39d911a8	0.0004140262

bias f4 [20]
0	0x3db95af7	0.09050553
1	0xbda9c939	-0.08290333
2	0x3cba5253	0.022744333
3	0xbe21c95f	-0.15799473
4	0xbe07d3b6	-0.13264355
5	0x3dfb64e8	0.12275106
6	0xbd0cc0f8	-0.034363717
7	0x3dca8e1f	0.09890389
8	0xbe141b2e	-0.14463493
9	0x3c5823b0	0.013192102
10	0xbcd44de4	-0.025916047
11	0xbdaeb30e	-0.08530246
12	0x3cc61222	0.024178568
13	0x3da1c279	0.07898421
14	0xbc0fbed3	-0.008773523
15	0x3cb410fa	0.021980751
16	0xbcafdff5	-0.021469096
17	0x3db32c92	0.087487355
18	0x3c9f51fe	0.019448277
19	0xbce35cf8	-0.027754292

weight f4 [160, 320]
0	0xbc23f497	-0.010007045
1	0x3d2757ca	0.040855207
2	0xbd972246	-0.07379584
3	0xbe153014	-0.14569122
4	0x3da35a89	0.079762526
5	0xbc0ed127	-0.008716858
6	0xbcfb34f5	-0.0306649
7	0xbd87be74	-0.06628123
8	0x3d8391e5	0.064243115
9	0x3cd6fc38	0.026243314
10	0xbce92d18	-0.028463885
11	0x3d3d1c6d	0.046169687
12	0xbcad5e8e	-0.021163251
13	0xbd6737a7	-0.05644956
14	0xbcba1e50	-0.022719532
15	0xbcc639f6	-0.02419756
16	0xbe1c5109	-0.15265287
17	0x3cbfb26e	0.023400512
18	0x3da507fb	0.08058163
19	0x3d831024	0.06399563
20	0xbd224ddc	-0.039625034
21	0xbc190462	-0.009339424
22	0xbcb9aa93	-0.022664344
23	0xbc6f933f	-0.014622509
24	0xbdc090e4	-0.09402636
25	0xbd7afdb0	-0.06127709
26	0x3d360164	0.04443492
27	0x3dc13ed4	0.09435812
28	0xbd219d3f	-0.039456602
29	0x3d3cbe78	0.046080083
30	0x3dfbf423	0.12302425
31	0x3d003132	0.031296916
32	0xbd89d6b9	-0.06730408
33	0xbd4cb983	-0.049981605
34	0x3d2fd98c	0.04293208
35	0x3dbcab09	0.0921231
36	0xbd51345b	-0.05107532
37	0x3d42786d	0.04747813
38	0xbdc30917	-0.09523218
39	0x3dbce86a	0.09224017
40	0xbcce5111	-0.02518514
41	0xbde4d8b2	-0.11174144
42	0xbcdbc58c	-0.026827596
43	0x3d05e808	0.032691985
44	0x3d8bbca8	0.06823093
45	0xbd977814	-0.0739595
46	0x3d81c79e	0.06336902
47	0x3d28daa5	0.04122414
48	0xbd42a507	-0.047520664
49	0x3c30c648	0.010789461
50	0x3d62ea3b	0.05539916
51	0x3e16f7eb	0.1474301
52	0x3b98d387	0.004663888
53	0xbd7a4961	-0.061105136
54	0x3d18a910	0.037270606
55	0xbd3e447c	-0.04645203
56	0xbd3a0319	-0.04541311
57	0xbd013893	-0.031548094
58	0x3df522f1	0.11969555
59	0xbd4b6ed4	-0.04966624
60	0x3dc4cbfb	0.09609219
61	0x3e0cda95	0.13755257
62	0x3d35c869	0.04438058
63	0x3c9541b0	0.018219799
64	0xb9b7bdf8	-0.00035046018
65	0xbd53679a	-0.051612474
66	0x3da5bf6c	0.080931515
67	0x3d8a3b6d	0.06749616
68	0xbd32b031	-0.04362506
69	0xbc7c9b3d	-0.015417871
70	0x3e23088d	0.1592123
71	0x3d365f74	0.044524625
72	0x3bb8c0fc	0.00563824
73	0x3d87c2e5	0.0662897
74	0xbd922bfd	-0.07137296
75	0xbd7e9520	-0.062153935
76	0xbcacba22	-0.021084849
77	0x3de0acfe	0.10970496
78	0xba2da9fc	-0.0006624756
79	0xbd4fef02	-0.050765045
80	0x3cf4ddd7	0.029890938
81	0x3be6a2c6	0.007038447
82	0xbc044541	-0.008073152
83	0x3bf74e30	0.0075471625
84	0x3d3b3292	0.045702524
85	0x3d169b82	0.036769398
86	0x3c802bd7	0.015645904
87	0xbde904ba	-0.11377855
88	0x3cc5713e	0.02410185
89	0x3cb0db05	0.021588812
90	0xbd72a6ca	-0.059241094
91	0x3b793248	0.0038024355
92	0xbd9b8908	-0.07594496
93	0x3d1cd0f0	0.038285196
94	0xbc2689bb	-0.010164673
95	0x3c03bce1	0.008040638
96	0x3d578862	0.0526203
97	0xbc59783d	-0.013273296
98	0xbd83c7eb	-0.06434616
99	0xbd58f2fd	-0.052966107
100	0x3a103a6b	0.0005501869
101	0xbd8ad039	-0.067779966
102	0xbbaf277f	-0.0053452845
103	0x3c00701b	0.007839228
104	0x3e046eb9	0.12932862
105	0xbc90145b	-0.017587831
106	0xbe54e353	-0.20789842
107	0x3c8d3553	0.017237341
108	0x3d981fe5	0.074279584
109	0xbc0151dc	-0.007893052
110	0xbe139abc	-0.14414495
111	0xbd14203a	-0.036163546
112	0x3db1068b	0.08643826
113	0xbd094b23	-0.03351892
114	0xbddf2fe5	-0.10897807
115	0xbdb3f021	-0.08786035
116	0xbbff1d90	-0.0077855065
117	0x3dc5805c	0.09643623
118	0xbdb569e3	-0.08858087
119	0xbdd532df	-0.104100935
120	0x3dc13d32	0.094355
121	0x3ba8c182	0.005150021
122	0xbd9324e6	-0.07184772
123	0x3d6bda2b	0.057581108
124	0x3dff6780	0.12470913
125	0x3d0ea56f	0.03482574
126	0x3c8194a5	0.01581795
127	0x3d7446f0	0.059637964
128	0x3ca3e059	0.020004438
129	0x3ce9c1fd	0.028534884
130	0xbd91d760	-0.07121158
131	0x3c83b71f	0.01607853
132	0xbd7be1fb	-0.06149481
133	0xbca8ee9c	-0.02062159
134	0x3e18685f	0.14883564
135	0x3df14338	0.11780399
136	0x3d010edb	0.031508308
137	0x3d8a3ad8	0.06749505
138	0x3c7b69c0	0.015345037
139	0xbd2a6a00	-0.041604996
140	0xbd858bb5	-0.065207876
141	0xbd94dba4	-0.072684556
142	0xbc383c45	-0.011244838
143	0xbd2da3c9	-0.042392526
144	0x3b01e81c	0.0019822186
145	0x3d85274a	0.065016344
146	0x3cdfcb89	0.027318733
147	0xbe07c70a	-0.13259521
148	0x3c80a0df	0.01570171
149	0x3bb0172a	0.005373855
150	0xbd09dc74	-0.033657506
151	0xbd9fd1cf	-0.0780369
152	0xbca3ef3a	-0.020011533
153	0x3d14dc50	0.03634292
154	0x3d9e1059	0.07717962
155	0xbd3cf201	-0.04612923
156	0xbbdfcfdf	-0.0068302
157	0x3c2927c9	0.010324427
158	0xbcf9c1d3	-0.03048793
159	0x3dba2f48	0.090910494
160	0xbd12b1e0	-0.035814166
161	0x3d56846e	0.05237239
162	0x3d2d9ad4	0.042383984
163	0x3d47fe28	0.048826367
164	0xbcc2cefe	-0.023780342
165	0x3cb2aff9	0.021812426
166	0xbbb54438	-0.005531814
167	0x3bcb41c0	0.0062029064
168	0x3aa6a820	0.00127149
169	0xbcfea645	-0.031085143
170	0xbd52080e	-0.051277213
171	0x3ca7ed04	0.02049876
172	0x3ceb55a6	0.028727364
173	0x3c5a5ae8	0.013327338
174	0x3d0ef080	0.034897327
175	0xbd5e1ab0	-0.05422467
176	0xbd00497b	-0.031320076
177	0x3d0b3ee7	0.033995535
178	0x3d30f168	0.043198973
179	0x3de29218	0.110630214
180	0xbc5d7502	-0.013516666
181	0xbdd9983e	-0.10624741
182	0x3dfd4c48	0.12368065
183	0x3e3b3e49	0.18285479
184	0x3db706b5	0.08936826
185	0x3c734a7e	0.014849303
186	0xbcce7c71	-0.025205823
187	0xbdb84007	-0.08996587
188	0x3d882dd0	0.06649363
189	0xbc1f6a5b	-0.009729947
190	0xbd43cd0f	-0.04780298
191	0x3bca56b1	0.006174885
192	0x3d45510e	0.048173003
193	0x3cb747d5	0.02237312
194	0xbcb724b5	-0.02235637
195	0xbdba2027	-0.09088164
196	0xbca9773b	-0.020686736
197	0xbc6803c5	-0.014161055
198	0xbdefdff7	-0.1171264
199	0x3cc1d84b	0.023662707
200	0xbd6c180b	-0.057640117
201	0x3c7c4e5a	0.01539954
202	0x3e2b807b	0.1674823
203	0x3e55992e	0.20859215
204	0x3b9c6e9e	0.004773929
205	0x3c4906eb	0.012269716
206	0xbd931222	-0.07181193
207	0xbceb8612	-0.028750453
208	0xbdc167d2	-0.0944363
209	0x3d264a48	0.040598184
210	0x3dc7f0af	0.097627036
211	0x3d0051e8	0.031328112
212	0x3d48e2e8	0.04904452
213	0xbbc18800	-0.005906105
214	0xbd57460b	-0.052557033
215	0xbca1e541	-0.019762637
216	0xbd62be90	-0.055357516
217	0xbc87fe3b	-0.016600719
218	0x3cee45a3	0.02908594
219	0xbcbfdb93	-0.02342013
220	0x3cffc52f	0.031221954
221	0x3cf239dd	0.029568607
222	0xbcc57c7b	-0.024107208
223	0x3d61bcd0	0.055111706
224	0x3c6383bd	0.013886389
225	0xbd2bd09d	-0.041946996
226	0x3cacb0e2	0.021080438
227	0x3df22770	0.11823928
228	0xbd9d5c36	-0.076836035
229	0xbcfa0077	-0.0305178
230	0xbce41216	-0.027840655
231	0xbbd46cf5	-0.0064827153
232	0x3d92c120	0.07165742
233	0x3a6d888d	0.000906118
234	0xbd5691b7	-0.05238506
235	0xbc0332ab	-0.008007686
236	0xbd34a616	-0.044103704
237	0xbc7dfbdf	-0.015501945
238	0xbbf0eef4	-0.007352704
239	0x3d9faae8	0.0779627
240	0xbd7a23c3	-0.06106926
241	0xbd24c1dc	-0.04022394
242	0x3ddb2d81	0.107020386
243	0x3dbd5414	0.09244552
244	0xbbb1e0f3	-0.0054284274
245	0xbb59de43	-0.003324405
246	0x3cd91822	0.026500765
247	0xbd091416	-0.03346642
248	0xbd3bbdec	-0.04583542
249	0x3d30bf0b	0.043150943
250	0x3c251802	0.010076525
251	0xbcefe655	-0.029284636
252	0xbd2e3da9	-0.042539272
253	0x3cc12d6e	0.023581233
254	0xbd39f2db	-0.04539762
255	0xbc586fe8	-0.013210274

bias f4 [160]
0	0x3d48f1b2	0.049058624
1	0x3d5f739e	0.05455362
2	0x3c713e3a	0.014724309
3	0xbb3af4c1	-0.0028527232
4	0x3da35289	0.07974727
5	0x3d58ac75	0.052898843
6	0xbd1d2062	-0.03836096
7	0xbc76ea0c	-0.01507045
8	0x3dd10e10	0.1020776
9	0x3cec8252	0.028870735
10	0x3cb0a2b4	0.021561958
11	0x3daf6b2d	0.08565364
12	0x3d83f14b	0.06442507
13	0x3c92e8d1	0.017933281
14	0x3dbe0044	0.092773944
15	0x3cdc0a59	0.026860403
16	0xbc78877d	-0.015169022
17	0x3db94ef5	0.09048263
18	0x3e03aea5	0.1285959
19	0x3d853ba0	0.06505513
20	0x3cd5ab53	0.02608267
21	0x3be8b791	0.007101961
22	0x3d5f604f	0.054535206
23	0x3d8ff8dc	0.07029888
24	0x3d59a7ce	0.053138547
25	0x3d6bf92e	0.057610683
26	0x3d973263	0.073826574
27	0x3d10f096	0.03538569
28	0x3def4703	0.11683466
29	0x3e86343a	0.2621172
30	0x3e0340e9	0.1281773
31	0xbc82f7cb	-0.015987298
32	0x3d9bfc95	0.076165356
33	0x3d790f5d	0.060805667
34	0xbcda0efc	-0.026618473
35	0x3c5fe22a	0.013664762
36	0x3c8ed316	0.017434638
37	0x3de33ae1	0.11095215
38	0xbd0f95c0	-0.035054922
39	0x3dff2b4c	0.1245943
40	0x3e09bf37	0.13451849
41	0x3dc82915	0.09773461
42	0xbd496094	-0.04916437
43	0x3d45c49f	0.048283216
44	0xbc00042d	-0.007813496
45	0xbd255c42	-0.040371187
46	0x3df5d3b7	0.12003272
47	0x3daeba96	0.08531682
48	0x3e04ef06	0.12981805
49	0x3d6f1d1c	0.05837737
50	0x3db50d15	0.08840386
51	0x3e3e2252	0.1856778
52	0x3e379e3e	0.17931458
53	0x3dfff7ed	0.1249846
54	0x3d99c9db	0.07509204
55	0x3dde5758	0.10856503
56	0x3dc51ace	0.09624253
57	0xbd2765b9	-0.040868495
58	0x3df0b82e	0.117538795
59	0x3d9794bd	0.074014165
60	0x3d20019a	0.039064027
61	0x3b8c5401	0.004282475
62	0x3d01c0ce	0.031678014
63	0xbba80494	-0.005127499
64	0x3e2db7ad	0.16964598
65	0xbd09ec44	-0.033672586
66	0xbc984c33	-0.018591022
67	0x3dd28cdf	0.10280775
68	0xbc05b16d	-0.008159977
69	0x3d22d5b3	0.03975458
70	0x3c5a7e5d	0.013335791
71	0x3dee9a17	0.11650484
72	0x3e066a39	0.13126458
73	0xbd201971	-0.039086763
74	0xbb276f6d	-0.0025548593
75	0x3d3e6e8a	0.046492137
76	0xbddd8621	-0.10816599
77	0xbb7bbded	-0.0038412765
78	0x3d9597e7	0.07304364
79	0x3d9ad820	0.07560754
80	0xbc62dc86	-0.013846522
81	0x3b8bd67c	0.004267512
82	0xbc6600be	-0.014038263
83	0x3d3b9164	0.045792952
84	0xbcea2b79	-0.028585183
85	0x3dc73c53	0.09728303
86	0x3d2c4ebf	0.042067286
87	0x3e31700d	0.173279
88	0x3d488ec8	0.04896429
89	0x3cde250f	0.02711728
90	0x3d37ac47	0.04484203
91	0x3db15496	0.086587116
92	0x3dce8cbe	0.10085438
93	0x3d230654	0.039800957
94	0x3e1fa9ff	0.15592192
95	0xbd0543b4	-0.03253527
96	0xbcc15a7a	-0.023602713
97	0x3d9430e2	0.07235886
98	0xbd8ae056	-0.0678107
99	0x3e10ed46	0.14153013
100	0x3c1cb229	0.009563961
101	0x3b4516d2	0.0030073416
102	0x3d8cb48e	0.068703756
103	0x3de81ad2	0.113332406
104	0xbb99dca2	-0.004695491
105	0x3db0136b	0.08597454
106	0x3d9b2ca0	0.07576871
107	0x3dd5e352	0.104437485
108	0x3db0d574	0.08634463
109	0xbcf982b2	-0.030457828
110	0xba02f929	-0.0004996234
111	0x3b117e5d	0.0022200563
112	0x3d173351	0.036914174
113	0x3d900608	0.070324
114	0xbb6e4bd8	-0.0036361124
115	0x3e2884c9	0.16456904
116	0xbc197f04	-0.009368662
117	0x3d82685d	0.06367562
118	0x3b3e029e	0.002899326
119	0x3d156c98	0.036480516
120	0x3dddd7ee	0.10832201
121	0xbe203371	-0.15644623
122	0x3e381ef4	0.17980558
123	0xbcaef8ba	-0.021358836
124	0xba43cc15	-0.000746907
125	0xbd1b41ae	-0.037904434
126	0x3d6c4721	0.05768502
127	0x3d8cbab9	0.06871552
128	0xbd9ea859	-0.077469535
129	0x3d9c14a6	0.07621126
130	0x3d24d459	0.040241573
131	0xbd467020	-0.048446774
132	0x3cdc9257	0.026925249
133	0xbc8b0563	-0.016970342
134	0x3c2a1556	0.010381063
135	0x3d1d9b5b	0.038478237
136	0xbbd7c49f	-0.0065847184
137	0xbd1d8a34	-0.03846188
138	0x3e476693	0.19472723
139	0x3d9b0c1e	0.075706705
140	0x3d08e31a	0.033419706
141	0xbce26264	-0.027634807
142	0x3c1fbaef	0.009749158
143	0x3ca287a8	0.019840077
144	0x3de962c2	0.1139579
145	0x3d4ae934	0.049538806
146	0xbc9a5244	-0.018838055
147	0x3e2005e1	0.15627243
148	0x3c2c8c50	0.0105315
149	0x3d782e20	0.060590863
150	0x3de8322e	0.11337696
151	0x3d63d4bf	0.055622812
152	0x3d3adb4b	0.04561929
153	0x3c977db5	0.018492559
154	0xbd08b964	-0.033379927
155	0x3cefa5cd	0.029253865
156	0xbc475817	-0.012166998
157	0x3da0cec8	0.078519404
158	0x3d0a517f	0.033769127
159	0x3d466193	0.048432898

weight f4 [10, 160]
0	0xbdedec6a	-0.11617358
1	0xbcd58458	-0.026064083
2	0x3e04ea8e	0.129801
3	0x3d9afa7b	0.075673066
4	0xbd044e94	-0.0323015
5	0x3d85bc65	0.06530074
6	0x3d7432b2	0.05961866
7	0x3da4942c	0.08036074
8	0xbe5cf9ec	-0.21579713
9	0x3d7dcd68	0.06196347
10	0x3d922268	0.07135469
11	0x3cf97e2b	0.03045567
12	0xbd82c876	-0.06385891
13	0x3d81ca59	0.06337423
14	0x3c4b6857	0.012415013
15	0xbe595857	-0.21225105
16	0x3db7fd08	0.08983809
17	0xbde4fd9d	-0.111811854
18	0x3dce3a26	0.10069685
19	0xbd520895	-0.051277716
20	0x3dfa1e44	0.12212804
21	0x3c7ee1db	0.015556778
22	0x3de166f0	0.11005962
23	0x3e068239	0.13135614
24	0x3de5ad52	0.11214699
25	0x3dac9f3c	0.08428809
26	0xbe18935d	-0.14899965
27	0xbe0bb966	-0.13644943
28	0xbda697cb	-0.08134421
29	0xbdca9a0c	-0.09892663
30	0x3db5b73d	0.088728406
31	0xbe408303	-0.18799977
32	0xbddf0f19	-0.108915515
33	0x3d4aeae1	0.049540404
34	0x3c923fab	0.017852625
35	0x3d4e5412	0.050373144
36	0x3d27fb28	0.041011006
37	0x3e42c781	0.19021417
38	0xbd59bc43	-0.053158056
39	0xbc8abfb2	-0.01693711
40	0xbdfe86b1	-0.12428034
41	0x3bae5db9	0.005321231
42	0xbd509a4d	-0.050928403
43	0xbcb4690a	-0.022022743
44	0xbd7a4d98	-0.061109155
45	0xbc467e71	-0.012115107
46	0x3d51801e	0.051147573
47	0xbdf52f8e	-0.11971961
48	0x3d75e434	0.060032085
49	0x3d8cabd2	0.068687096
50	0x3dcb8adb	0.09938594
51	0xbe387e69	-0.18016972
52	0x3dd2df8b	0.10296544
53	0xbd81ac29	-0.06331665
54	0x3d3ab67c	0.045584187
55	0x3c775289	0.0150953615
56	0xbe2e7d0e	-0.17039892
57	0xbdbe8505	-0.09302715
58	0x3d7d5743	0.061850797
59	0xbe102b07	-0.14078914
60	0xbd34ce14	-0.044141844
61	0x3e2f41b2	0.17114905
62	0x3da54a8e	0.08070861
63	0x3d8cb203	0.068698905
64	0x3b500e1d	0.0031746693
65	0xbdf0c98d	-0.11757193
66	0xbd26de1a	-0.040739156
67	0x3d95cd81	0.073145874
68	0xbdf40134	-0.11914292
69	0xbc469c5e	-0.012122242
70	0xbd48857a	-0.04895542
71	0xbe4d4fec	-0.20050019
72	0xbe2fbf22	-0.17162755
73	0x3b836366	0.004009652
74	0xbd90ae11	-0.070644505
75	0x3d23db11	0.04000384
76	0xbc58f274	-0.013241399
77	0x3dc68e4b	0.09695109
78	0x3d8e635a	0.069525436
79	0xbe1b3644	-0.1515742
80	0xbdccb61f	-0.09995674
81	0xbe46d6b9	-0.19417848
82	0x3d9376f2	0.072004214
83	0xbdd6db95	-0.10491101
84	0x3db6f53e	0.08933495
85	0x3d82d2a5	0.063878335
86	0xbd887cc2	-0.06664421
87	0xbd987936	-0.07444994
88	0xbe0ad50f	-0.13557838
89	0x3d601055	0.054703075
90	0xbd93c7db	-0.07215854
91	0xbe025236	-0.12726673
92	0x3dba530e	0.09097873
93	0xbe1a12e6	-0.15046272
94	0x3dd92a16	0.106037304
95	0xbc262870	-0.010141477
96	0xbe1836d1	-0.14864661
97	0xbd979dd6	-0.07403152
98	0x3d17671a	0.03696356
99	0xbe10a7f7	-0.14126574
100	0x3d57f24d	0.05272131
101	0x3d8cd4e1	0.06876541
102	0x3d7403d4	0.059573963
103	0xbdf64eb3	-0.120267294
104	0x3bb8c22f	0.005638383
105	0xbe0d9bb9	-0.13828935
106	0xbcde4cef	-0.027136294
107	0xbda065e8	-0.07831937
108	0xbd996aea	-0.07491095
109	0xbe01f831	-0.12692334
110	0x3d803f4e	0.062620744
111	0xbe4a6279	-0.19764127
112	0xbd89376d	-0.06700025
113	0x3d1161dd	0.03549372
114	0xbe16345d	-0.14668413
115	0xbdf9e654	-0.12202135
116	0x3d9b7889	0.0759135
117	0x3d8834a9	0.06650669
118	0xbd210dcc	-0.0393198
119	0xbdd99b01	-0.10625268
120	0xbd73434c	-0.05939035
121	0xbd62cb07	-0.055369403
122	0xbe068dc7	-0.13140021
123	0x3cf58ad3	0.029973423
124	0xbddf34d1	-0.10898746
125	0xbd796599	-0.060887907
126	0xbd761895	-0.060082037
127	0x3dd3f386	0.10349183
128	0xbc94c6fb	-0.018161288
129	0xbe1884ab	-0.14894359
130	0x3dcfd112	0.10147299
131	0xbd8933ca	-0.06699331
132	0xbd96d629	-0.073650666
133	0xbd0ffc35	-0.035152633
134	0xbde05ec5	-0.10955576
135	0xbe399e26	-0.18126735
136	0xbdcf470f	-0.10120975
137	0xbe3f529d	-0.18683858
138	0xbca0f964	-0.019650169
139	0x3e051a37	0.12998281
140	0x3ba20632	0.004944586
141	0xbe14ec12	-0.14543179
142	0xbe197b39	-0.14988412
143	0x3cb9331d	0.02260738
144	0x3dc59c64	0.0964897
145	0x3ae90409	0.0017777692
146	0xbe18bb6f	-0.1491525
147	0xbcadf038	-0.02123271
148	0x3ddf7851	0.109116204
149	0xbe175e18	-0.14781988
150	0x3d6d9066	0.057999037
151	0xbd854cba	-0.06508775
152	0x3d77119f	0.06031954
153	0xbcf2e9f0	-0.029652566
154	0xbd9160ad	-0.070985176
155	0x3dccae72	0.0999421
156	0x3d94ebaf	0.072715156
157	0xbe57ba1b	-0.21067087
158	0x3d734a39	0.059396956
159	0xbc514928	-0.012773789
160	0x3d6692ee	0.056292467
161	0x3e00f1ab	0.12592189
162	0xbd5b92d6	-0.05360683
163	0xbde275c0	-0.11057615
164	0x3ceddf53	0.029037153
165	0xbe0f85b6	-0.1401585
166	0xbdc6718a	-0.096896246
167	0xbe3a8a56	-0.18216833
168	0x3d37b1d2	0.044847317
169	0xbd23b652	-0.039968796
170	0xbc398af7	-0.011324636
171	0xbc533b84	-0.012892608
172	0x3db8cf74	0.090239435
173	0xbe46fff3	-0.19433574
174	0x3dcbe81b	0.0995638
175	0x3da23323	0.0791991
176	0xbdf00df7	-0.117214136
177	0x3d3018ce	0.042992406
178	0x3da7beef	0.081907146
179	0x3d511f29	0.051055107
180	0xbda5e34a	-0.080999926
181	0x3cbdfaef	0.023190944
182	0xbda07e43	-0.078365825
183	0xbd9c53f1	-0.07633198
184	0xbe4d8c1b	-0.20072977
185	0xbe2ecc0f	-0.1707003
186	0xbe1dc078	-0.15405452
187	0x3cde56fa	0.027141083
188	0x3d76924e	0.06019812
189	0x3e6af2ae	0.22944137
190	0x3b8bcc43	0.0042662933
191	0x3dbbce81	0.09170247
192	0x3d9b8a67	0.075947575
193	0xbdbb2edb	-0.09139796
194	0xbdc3b438	-0.095558584
195	0xbe3e3df5	-0.18578322
196	0xbe062496	-0.13099894
197	0xbd0d3e7f	-0.03448343
198	0x3a199368	0.0005858452
199	0x3dac92b5	0.0842642
200	0x3de18fa5	0.11013726
201	0x3d878f78	0.06619161
202	0xbe862f9d	-0.262082
203	0xbe25b55a	-0.16182461
204	0xbe325374	-0.17414647
205	0xbd675813	-0.05648048
206	0x3e48f6a2	0.19625333
207	0x3d1d713d	0.03843807
208	0x3d6aebb0	0.057353675
209	0xbdaf3acf	-0.08556139
210	0x3df87b66	0.121329114
211	0x3db342b3	0.08752956
212	0x3dbfc635	0.09363977
213	0x3e44c0be	0.1921415
214	0xbd66035c	-0.056155547
215	0x3de90207	0.1137734
216	0x3d661e49	0.056181226
217	0xbd363fa7	-0.044494297
218	0x3db986fb	0.090589486
219	0x3d9edc3b	0.077568494
220	0x3c8cec8f	0.017202644
221	0xbd85ae53	-0.0652739
222	0xbdc48979	-0.09596533
223	0xbe466c79	-0.19377317
224	0x3dba81e9	0.0910681
225	0xbd8357ed	-0.06413255
226	0xbe1e5ed7	-0.15465866
227	0xbdd54f0b	-0.10415467
228	0xbd7e2427	-0.062046196
229	0xbc096364	-0.008385513
230	0xbdb1528c	-0.08658323
231	0x3e019128	0.12653029
232	0x3ddf8692	0.10914339
233	0xbe1cabcb	-0.15299909
234	0xbe26f44b	-0.16304128
235	0xbd825528	-0.063638985
236	0xbd820976	-0.06349461
237	0xbe186c8a	-0.14885154
238	0xbdaa73c5	-0.083228625
239	0xbdfbf5ae	-0.12302719
240	0xbd3ad193	-0.04561002
241	0xbb236719	-0.0024933277
242	0xbdaeb12c	-0.085298866
243	0x3ce58251	0.028016241
244	0xbd1691d2	-0.03676016
245	0x3d8ac800	0.06776428
246	0xbdfa19df	-0.12211966
247	0x3de92008	0.113830626
248	0x3de144da	0.109994605
249	0xbd7b9b31	-0.0614273
250	0xbda75a6b	-0.08171543
251	0x3d3f6c8f	0.04673439
252	0xbd7ebd37	-0.062192168
253	0xbd30e59c	-0.043187723
254	0x3d8b431d	0.0679991
255	0x3d6eb329	0.05827633

bias f4 [10]
0	0x3ded7d01	0.11596108
1	0x3e82e9e0	0.25569057
2	0xbcadb170	-0.021202773
3	0xbbc4726a	-0.0059950845
4	0xbd0159a8	-0.031579643
5	0xbcdc7319	-0.026910352
6	0xbd2c7548	-0.042104036
7	0xbc822f06	-0.015891563
8	0x3d2cb18b	0.042161506
9	0xbdb807cf	-0.08985864

weight f4 [10, 160]
0	0xbd43b885	-0.047783393
1	0xbcf95db0	-0.030440181
2	0x3d07512a	0.03303639
3	0xbd819f80	-0.0632925
4	0xbd40e7de	-0.047096126
5	0x3cb81d84	0.022475012
6	0xbd83957f	-0.064249985
7	0x3bfd8680	0.007736981
8	0xbbdcb640	-0.006735593
9	0x3d0cc5f6	0.034368478
10	0x3d9edd53	0.07757058
11	0xbc0a2678	-0.008432023
12	0xbb90ff70	-0.004424982
13	0xbd9a07a1	-0.07520986
14	0x3d386852	0.045021363
15	0xbc83f400	-0.01610756
16	0xbc4a75d8	-0.012357198
17	0x3a7d3f00	0.0009660572
18	0xbbf2e7d0	-0.007412888
19	0xbd191d40	-0.03738141
20	0xbd1da68a	-0.038488902
21	0x3d2194c2	0.039448507
22	0x3c7f7250	0.015591219
23	0xbc128840	-0.008943617
24	0x3bb96190	0.0056573823
25	0xbd98154a	-0.074259356
26	0x3d33e466	0.04391899
27	0xbcd6f516	-0.026239913
28	0xbd872609	-0.065990515
29	0xbd830782	-0.063979164
30	0x3d26f0aa	0.04075686
31	0xbd9854aa	-0.074380234
32	0x3ca4c880	0.020115137
33	0x3d9a5a89	0.075367995
34	0x3d3cf142	0.04612852
35	0x3d93b069	0.07211382
36	0xbd2214dc	-0.039570674
37	0xbd70b2ca	-0.058764257
38	0xbd355a95	-0.04427584
39	0x3d22e34c	0.03976755
40	0xbd1cd0e3	-0.038285147
41	0x3d8449f5	0.06459419
42	0x3d24271c	0.04007636
43	0xbce245d0	-0.02762118
44	0xbd1cb8b7	-0.038262095
45	0xbccac0e4	-0.02475018
46	0x3afe0940	0.0019381419
47	0xbc4ef470	-0.012631521
48	0xbd11813d	-0.03552364
49	0x3d04ecfe	0.032452576
50	0x3ce949ec	0.028477632
51	0xbd91d26e	-0.071202144
52	0xbd317b29	-0.043330345
53	0xbd89f5ae	-0.06736313
54	0xbd532b34	-0.051554874
55	0xbccb406a	-0.024810988
56	0xbd04de6b	-0.032438677
57	0xbcb75872	-0.022381041
58	0x3d6661ee	0.056245737
59	0x3c07c830	0.0082874745
60	0x3be83480	0.0070863366
61	0xbd7e767c	-0.062124714
62	0x3c98deb0	0.018660873
63	0x3d88383b	0.0665135
64	0x3d231578	0.039815396
65	0x3ccbcf58	0.024879143
66	0x3ca248a0	0.01981002
67	0x3c24e868	0.010065176
68	0xbd8b0cea	-0.067895725
69	0xbd882adc	-0.066488
70	0x3d89fd13	0.06737723
71	0x3d8a89fd	0.067646004
72	0x3c8cf63c	0.017207257
73	0x3c129888	0.008947499
74	0x3ccbdad0	0.024884611
75	0x3d177ecc	0.036986157
76	0x3d1dfc30	0.038570583
77	0xbc674690	-0.0141159445
78	0x3d5e2e06	0.05424311
79	0xbc85364c	-0.016261242
80	0xbd280cb9	-0.04102776
81	0xbcad806c	-0.0211794
82	0xbcfa6c10	-0.030569106
83	0x3d2456fe	0.040122025
84	0xbd6eadf9	-0.058271382
85	0xbd995a4c	-0.07487926
86	0x3c35a728	0.011087216
87	0x3d107630	0.035268962
88	0x3d208c6e	0.039196424
89	0x3d8cd747	0.068769984
90	0xbd6c70f6	-0.057724915
91	0xbd6893b8	-0.0567815
92	0xbbc8db70	-0.0061296746
93	0x3d3f8b46	0.04676368
94	0x3c8d53b8	0.017251834
95	0xbc1f7808	-0.0097332075
96	0xbd4b37f4	-0.049613908
97	0x3bf68350	0.007522978
98	0xbcf006da	-0.029300142
99	0x3c552898	0.013010167
100	0xbca5e9f4	-0.02025316
101	0x3d927def	0.07152926
102	0x3d771f9a	0.060332872
103	0x3d983f13	0.074339055
104	0x3d0988f0	0.03357786
105	0x3c5145d8	0.012773
106	0xbd4a25b4	-0.049352363
107	0x3d1ef664	0.038809195
108	0x3d53714a	0.051621713
109	0xbd8b2e22	-0.067959085
110	0xba5b1600	-0.0008357465
111	0x3d60a49a	0.054844476
112	0x3d212e68	0.039350897
113	0x3ccf9d0c	0.02534344
114	0xbd175b06	-0.03695204
115	0x3b888d80	0.0041672587
116	0xbc4bb710	-0.012433782
117	0xbd87379f	-0.06602406
118	0xbd1534f9	-0.03642747
119	0xbcfdde70	-0.030989856
120	0x3d2c8494	0.042118624
121	0xbd298443	-0.0413859
122	0xbd058220	-0.0325948
123	0xbc3afbe8	-0.011412598
124	0xbcad4a40	-0.02115357
125	0xbd8a44f8	-0.06751436
126	0xbb921930	-0.004458569
127	0x3c638c18	0.013888381
128	0x3b56fec0	0.0032805651
129	0x3d6498fa	0.055809952
130	0xbd28310f	-0.04106241
131	0x3d8724db	0.065988265
132	0xbccf4408	-0.025300995
133	0xbc276398	-0.010216616
134	0xbd61e5fc	-0.05515097
135	0x3d1fc30e	0.039004378
136	0x3d260c64	0.04053916
137	0xbc41bef8	-0.011825316
138	0xbd0b259d	-0.033971418
139	0x3b914a50	0.0044339076
140	0xbd5a6eb2	-0.053328224
141	0xbd7b18bc	-0.061302885
142	0xbd07ca65	-0.033152003
143	0xbd1a8410	-0.0377236
144	0xbd674237	-0.05645963
145	0x3c8f086c	0.01746007
146	0x3d61c766	0.0551218
147	0xbd49bba6	-0.04925122
148	0x3d46dace	0.048548512
149	0x3d5a73ce	0.053333096
150	0xbd465aa8	-0.0484263
151	0xbc60dce0	-0.013724536
152	0xbd5f8f42	-0.05457998
153	0x3c613ff8	0.0137481615
154	0x3d91eaf1	0.0712489
155	0xbd15d1dd	-0.036577094
156	0xbd574102	-0.05255223
157	0x3bf38350	0.007431425
158	0x3c5778b8	0.01315134
159	0x3ad4ca40	0.0016234592
160	0x3d18ce92	0.037306376
161	0x3cb6f770	0.022334784
162	0x3c95316c	0.018212043
163	0x3d1b1bd4	0.037868336
164	0x3d90299f	0.070391886
165	0x3d8f9f15	0.07012764
166	0x3a465000	0.00075650215
167	0xbd862bf8	-0.06551355
168	0xbd254168	-0.04034558
169	0x3d32a0fc	0.043610558
170	0xbbb231f0	-0.005438082
171	0xbc1897e8	-0.009313561
172	0x3d0ae02e	0.0339052
173	0x3b095ee0	0.002096109
174	0xbd4518e6	-0.048119448
175	0xbd7719ab	-0.060327213
176	0x3d6a030e	0.05713182
177	0x3d64ba22	0.055841573
178	0x3d73f88e	0.059563212
179	0x3d739b52	0.059474297
180	0x3d9de605	0.07709888
181	0x3d618db2	0.05506677
182	0x3d8450d5	0.0646073
183	0x3d97b8a1	0.07408262
184	0x3d767432	0.060169406
185	0xbd3b0762	-0.045661338
186	0x3c41a918	0.0118201
187	0x3d8c4edf	0.06850981
188	0x3d5ccd06	0.053906463
189	0xbd0a09dc	-0.03370081
190	0x38a2e000	7.766485e-05
191	0x3b792400	0.0038015842
192	0x3ba53110	0.005041249
193	0xbd4f2c29	-0.050579224
194	0x3d7902c2	0.060793646
195	0x3d4ab7da	0.04949174
196	0xbd3aff7a	-0.045653798
197	0xbc73adb0	-0.014872953
198	0xbc714978	-0.014726989
199	0x3ca9c070	0.020721644
200	0xbd7266e6	-0.059180163
201	0xbd61db48	-0.055140764
202	0xbc74e668	-0.014947511
203	0xbd86357e	-0.065531716
204	0xbd1260a7	-0.035736706
205	0xbc5b4540	-0.01338321
206	0xbb508b40	-0.003182128
207	0x3d226480	0.039646626
208	0x3cc06708	0.02348663
209	0xbd8ce19d	-0.0687897
210	0x3d24ac9c	0.040203676
211	0xbc881596	-0.016611855
212	0xbb736700	-0.003714025
213	0x3cae6db0	0.021292537
214	0xbd254788	-0.04035142
215	0x3d5681b2	0.05236978
216	0x3c62cc70	0.013842687
217	0x3b859a50	0.0040772334
218	0xbc295de0	-0.010337323
219	0xbcfdf966	-0.031002712
220	0xbb565d00	-0.003270924
221	0x3d429c6a	0.04751245
222	0xbcf90eb6	-0.030402523
223	0xbb2c2780	-0.002626866
224	0x3d809ba3	0.06279685
225	0xbd9e4226	-0.077274606
226	0xbd55e026	-0.052215718
227	0x3c5fff18	0.013671659
228	0x3d92b7d1	0.071639664
229	0x3d477022	0.048690923
230	0xbd62932b	-0.05531613
231	0xbd7d6f50	-0.061873734
232	0x3b778940	0.0037771016
233	0x3cf14dbc	0.029456012
234	0x3d95dfed	0.07318101
235	0xbc1cb0e8	-0.009563662
236	0xbcc310da	-0.023811746
237	0x3c04ad80	0.008098006
238	0xbd465dca	-0.048429288
239	0x3d876805	0.06611637
240	0x3c866054	0.016403355
241	0x3d07e266	0.033174895
242	0x3c844054	0.016143955
243	0xbd94c0c0	-0.07263327
244	0x3c79f5f0	0.01525639
245	0xbd94038f	-0.07227241
246	0xbd4c9ae4	-0.049952403
247	0xbcf1e1b4	-0.029526569
248	0x3d5e0fce	0.05421429
249	0x3d7c9fb2	0.061675735
250	0x3baf9770	0.005358629
251	0xbcb55234	-0.022133924
252	0x3c914198	0.017731473
253	0xbd600c88	-0.05469945
254	0x3d1de864	0.038551703
255	0x3c9213cc	0.017831706

bias f4 [10]
0	0xbc3ecf50	-0.011646107
1	0xbc8eb7c0	-0.017421603
2	0x3d39197c	0.04519032
3	0x3ac0e540	0.0014716759
4	0x3d009124	0.031388417
5	0x3ce955b8	0.028483257
6	0xbd25dedb	-0.040495735
7	0x3d7ce456	0.061741196
8	0xbcf748ba	-0.030186046
9	0x3c99215c	0.018692665
