MNIST_net.pt (torch, 93767 bytes, 10 tensors)

weight f4 [10, 1, 5, 5]
0	0x3f411fb2	0.7543899
1	0xbd578eac	-0.052626297
2	0xbef38f91	-0.4757047
3	0xbdfeeb90	-0.12447274
4	0xbd436bb7	-0.047710147
5	0xbe7009e3	-0.23441271
6	0xbf02f55a	-0.51155627
7	0xbec51dae	-0.38499206
8	0x3e925816	0.2858283
9	0x3efc4eb9	0.4927881
10	0xbd4b84ff	-0.04968738
11	0xbe7a53e0	-0.24446058
12	0x3efd3b1a	0.49459153
13	0x3e74e9f0	0.23917365
14	0x3df2a758	0.118483245
15	0x3ec1f8c3	0.37885103
16	0x3ebf124b	0.37318644
17	0x3e1463ce	0.14491197
18	0xbf377219	-0.71658474
19	0xbf14f546	-0.5818676
20	0x3e4d23db	0.20033209
21	0xbe43c0cc	-0.19116515
22	0xbeef411e	-0.46729368
23	0xbea3e675	-0.32011762
24	0x3eef1580	0.4669609
25	0xbc34f0b0	-0.0110437125
26	0x3d1deef5	0.038557965
27	0xbd47fdc8	-0.04882601
28	0xbe626c39	-0.22111596
29	0xbe6cf80e	-0.231415
30	0x3e773336	0.24140629
31	0x3f042d5a	0.516317
32	0xbc5f157e	-0.013615964
33	0xbe55f314	-0.20893508
34	0xbf058070	-0.52149105
35	0x3bf76dfa	0.007550952
36	0x3edd9423	0.43277082
37	0x3c506923	0.012720379
38	0xbed26945	-0.4109594
39	0x3ec156ae	0.37761444
40	0xbe1a2207	-0.15052043
41	0x3dda48f1	0.10658444
42	0x3e9ccc66	0.30624694
43	0x3cfed627	0.031107975
44	0x3de76787	0.11299043
45	0x3ea978ce	0.3309998
46	0x3e13fa47	0.14450942
47	0x3e6b42bd	0.22974677
48	0x3dbd2b1b	0.09236737
49	0x3dd81ff3	0.10552969
50	0xbf4c824d	-0.79886323
51	0x3e1f1aeb	0.15537612
52	0x3e4698b5	0.1939419
53	0x3d92ce0e	0.07168208
54	0x3eb306ef	0.34966227
55	0xbf48592c	-0.78261065
56	0xbf633eae	-0.88767517
57	0xbf86318c	-1.048387
58	0xbf45b944	-0.7723582
59	0xbf8dde14	-1.1083398
60	0xbd4953c7	-0.049152162
61	0xbd8b2d34	-0.06795731
62	0x3e02a215	0.12757142
63	0x3df04829	0.117325135
64	0xbec169a0	-0.37775898
65	0x3f05308c	0.520272
66	0x3eba7f40	0.3642521
67	0x3e490507	0.19630824
68	0x3da2b4c2	0.07944633
69	0xbe82d161	-0.25550368
70	0xbc63512e	-0.013874335
71	0x3d2d98f6	0.042382203
72	0xbe6c7c88	-0.2309438
73	0x3e46c9bc	0.19412893
74	0x3e30c87f	0.17263983
75	0xbd36a344	-0.044589296
76	0xbe8658a5	-0.26239505
77	0xbe263677	-0.16231714
78	0xbcd10a8a	-0.02551772
79	0x3baacbd2	0.0052122856
80	0x3cc2972b	0.023753723
81	0xbfb2ca0c	-1.396791
82	0xbdc41c46	-0.09575705
83	0xbe428aad	-0.18998213
84	0x3e8e9d5d	0.27854434
85	0x3de264fe	0.11054419
86	0xbf058e10	-0.52169895
87	0xbdd8ca1b	-0.105854236
88	0xbdcacdf2	-0.09902562
89	0x3edd2686	0.43193454
90	0xbe903529	-0.28165558
91	0xbee28f6a	-0.4425004
92	0xbd6143c7	-0.054996278
93	0x3de41fb5	0.1113886
94	0x3e851419	0.25991896
95	0xbed7f1b1	-0.42176583
96	0xbe8eac07	-0.2786562
97	0xbdc463b7	-0.095893316
98	0x3e47c10c	0.19507235
99	0x3ed34be1	0.4126883
100	0xbc39a04f	-0.011329724
101	0x3d0ebca1	0.03484786
102	0xbd9ba818	-0.07600421
103	0xbc486c5d	-0.012232867
104	0x3e99fddc	0.30076492
105	0x3d95b12b	0.07309183
106	0x3e8e52de	0.27797598
107	0x3e62fb50	0.2216618
108	0x3d0899cd	0.0333498
109	0x3e3fc671	0.18728043
110	0xbdc96b5a	-0.09834929
111	0xbd054b11	-0.032542292
112	0x3d7d4b2c	0.061839268
113	0x3e9d97e4	0.30779946
114	0xbde6bf8c	-0.112670034
115	0xbefa4283	-0.4887887
116	0x3ca42c68	0.020040706
117	0x3eb66d6e	0.35630363
118	0x3ce0754d	0.027399683
119	0xbf286d6f	-0.6579198
120	0xbee093f9	-0.43862894
121	0xbf63ae4e	-0.8893784
122	0xbf8e799b	-1.1130861
123	0xbf0e9169	-0.5569063
124	0x3da349dd	0.07973073
125	0xbeca7237	-0.39540264
126	0x3b84f24c	0.0040572044
127	0x3b95e2a0	0.004574135
128	0xbe1d0067	-0.15332185
129	0xbf0c1ac2	-0.5472833
130	0xbf45fb72	-0.773368
131	0x3e20a66b	0.15688483
132	0xbdf93088	-0.1216746
133	0xbc69597e	-0.014242528
134	0xbf7def0a	-0.9919287
135	0xbf6149af	-0.8800306
136	0x3e92b9ba	0.28657323
137	0xbd7180b4	-0.05896063
138	0xbdaa7508	-0.08323103
139	0xbefb3f6f	-0.49071833
140	0xbf0e5f0d	-0.55613786
141	0xbe1ea1f8	-0.15491474
142	0x3eef1358	0.46694446
143	0x3ea7ddf5	0.32786527
144	0xbf5f9510	-0.87336826
145	0xbf3ee6a3	-0.74570674
146	0x3d98687e	0.07441805
147	0x3ea5f050	0.32409906
148	0x3debffaa	0.115233734
149	0xbf06812f	-0.5254087
150	0x3c9f6d8d	0.019461418
151	0x3d2ccd7b	0.04218815
152	0x3e4f9dce	0.20275041
153	0x3c263acb	0.010145853
154	0xbef15b07	-0.4713976
155	0x3e3f9de4	0.18712574
156	0xbd0ca553	-0.034337353
157	0x3e98bbc7	0.29830763
158	0xbe95d196	-0.29261464
159	0xbed657b0	-0.41863775
160	0xbe9c1916	-0.3048789
161	0x3d775bc6	0.060390256
162	0x3f21536f	0.63017935
163	0x3b1e6bc8	0.002417313
164	0xbd11330f	-0.035449084
165	0xbef567ab	-0.47930655
166	0xbe989302	-0.29799658
167	0x3ecfbf6d	0.40575734
168	0x3efb8b50	0.49129725
169	0x3e70f23f	0.2352991
170	0xbf78d66a	-0.9720217
171	0xbec5e613	-0.38652095
172	0xbeda5ebc	-0.42650402
173	0xbe1477ec	-0.14498872
174	0x3e2ffaee	0.17185566
175	0xbebe063f	-0.3711414
176	0x3ea7515a	0.32679254
177	0x3d8c02b5	0.06836454
178	0xbc1365c2	-0.008996429
179	0xbe396007	-0.18103038
180	0xbe33e255	-0.17566808
181	0x3e674057	0.22583137
182	0xbd04f801	-0.032463077
183	0x3dfdef30	0.12399137
184	0xbef85df5	-0.48509184
185	0x3e421f98	0.18957365
186	0x3ec2ee72	0.38072544
187	0x3ddefdc5	0.108882464
188	0x3e50fad8	0.2040819
189	0xbfef4425	-1.8692671
190	0x3ea60a2f	0.32429644
191	0x3e1204e3	0.14259677
192	0xbcfdd4b6	-0.030985218
193	0xbeedfd68	-0.46482396
194	0xbfd33c59	-1.6502792
195	0xbe3ff890	-0.18747163
196	0xbf00e8ab	-0.50355023
197	0xbf073c52	-0.52826416
198	0xbf849f63	-1.0361141
199	0xbf015aab	-0.50528973
200	0xbe63bda4	-0.22240311
201	0x3deae1a0	0.11468816
202	0x3d4ceee0	0.050032496
203	0xbdb878a0	-0.090073824
204	0xbe9c1767	-0.30486605
205	0xbe9ace5f	-0.30235574
206	0x3e3882ae	0.180186
207	0x3e9c7b7c	0.3056296
208	0xbc217206	-0.009853845
209	0xbf6af4f2	-0.91780007
210	0xbf19efc3	-0.6013147
211	0x3eafbde2	0.34324557
212	0xbf821cc8	-1.0165033
213	0xbf76be8b	-0.96384495
214	0xbf429b6b	-0.760184
215	0xbf8c6706	-1.096894
216	0xbfc23161	-1.5171319
217	0xbf23a203	-0.63919085
218	0xbd66cb86	-0.05634644
219	0x3c7e7b1d	0.015532282
220	0xbfa3a9ba	-1.2786171
221	0x3c6d7af5	0.014494647
222	0xbcfd13a0	-0.030893147
223	0x3e27ea7a	0.1639804
224	0x3f0a56c8	0.5403867
225	0xbf4ee70c	-0.808213
226	0xbf337257	-0.70096344
227	0xbeaa2e07	-0.3323824
228	0xbe84a131	-0.2590423
229	0x3ea29ed0	0.3176179
230	0xbd6f14ac	-0.058369324
231	0xbe134b40	-0.14384174
232	0xbf596a66	-0.84927976
233	0xbf144fc0	-0.5793419
234	0xbef4cd26	-0.47812766
235	0x3e36f247	0.17865859
236	0xbaf170bb	-0.0018420437
237	0xbcd359e5	-0.025799701
238	0xbeb2402e	-0.3481459
239	0xbf901459	-1.125621
240	0xbebee5aa	-0.37284595
241	0x3e3261ed	0.17420168
242	0x3eb44d35	0.35215154
243	0xbed3df47	-0.41381285
244	0xbefbadee	-0.49156135
245	0xbf58e058	-0.8471732
246	0x3e2061af	0.15662263
247	0x3f2655ce	0.6497468
248	0xbe1505c4	-0.1455298
249	0xbebd4dc9	-0.36973408

bias f4 [10]
0	0xbf630cec	-0.8869159
1	0xbfa1ab56	-1.2630413
2	0xbe5ce6a3	-0.21572356
3	0xbf4922e9	-0.78568894
4	0xbcde336f	-0.027124135
5	0xbd3afaae	-0.045649223
6	0xbf28f3b4	-0.6599686
7	0xbe5120c3	-0.20422654
8	0xbd9efd8f	-0.07763206
9	0xbe657a38	-0.22409904

weight f4 [20, 10, 5, 5]
0	0x3cfa80db	0.030579021
1	0xbf2dfa95	-0.6796048
2	0xbe0f0654	-0.13967258
3	0xbdc84e82	-0.09780599
4	0xbe8bd67c	-0.27312076
5	0x3e0eb324	0.13935524
6	0xbd13ffc4	-0.03613259
7	0xbf50aa12	-0.81509507
8	0xbf242969	-0.64125687
9	0x3e760eb2	0.24029043
10	0xbf254589	-0.6455923
11	0xbecb67e9	-0.39727715
12	0xbf1136c3	-0.56724185
13	0xbfa36a6c	-1.2766852
14	0xbe67d932	-0.22641447
15	0x3cafbbba	0.02145182
16	0xbdf48344	-0.119390994
17	0xbeb8aaaa	-0.36067706
18	0xbf786c73	-0.9704048
19	0xbd5a90a7	-0.053360607
20	0x3eafdefc	0.3434981
21	0x3ef0661f	0.46952912
22	0xbe2058ff	-0.1565895
23	0xbd0578f4	-0.032586053
24	0xbed764b2	-0.42069012
25	0xbec56cb9	-0.3855951
26	0xbea23806	-0.31683367
27	0xbf04f90a	-0.51942503
28	0xbf346ec5	-0.7048152
29	0xbf351aa8	-0.707438
30	0x3ed8c1e5	0.4233543
31	0x3e8496b5	0.2589623
32	0xbf124c5e	-0.5714778
33	0xbf7bcaac	-0.9835613
34	0xbf47f09b	-0.7810151
35	0x3db0491f	0.08607697
36	0x3e884f21	0.2662287
37	0x3d9c2537	0.07624286
38	0xbff2a0b1	-1.8955289
39	0xbf1cc755	-0.61241657
40	0xbe4a31ed	-0.19745608
41	0xbe4e4aa7	-0.20145665
42	0x3e1d0849	0.15335192
43	0xbec2347d	-0.3793067
44	0xbed5e0fe	-0.41773218
45	0xbcfa2b37	-0.030538185
46	0xbd386272	-0.04501576
47	0x3ea0bf55	0.31395975
48	0xbe44db2e	-0.19224235
49	0xbee50f8c	-0.44738424
50	0x3d28166d	0.041037012
51	0xbf85a20e	-1.044008
52	0xbfa1618f	-1.2607898
53	0xbf88e9ce	-1.0696352
54	0xbee6e0d6	-0.4509341
55	0xbfbbee71	-1.4682142
56	0xbe8ef02c	-0.27917612
57	0x3e399d56	0.18126425
58	0xbf64bb7b	-0.8934857
59	0xbd6f6d1d	-0.058453668
60	0xbf7c34c9	-0.98518044
61	0xbad83af9	-0.0016497067
62	0x3ead9359	0.3390148
63	0xbf00c2a1	-0.5029698
64	0xbea34230	-0.31886435
65	0xbe10a038	-0.14123619
66	0x3d4af08d	0.049545813
67	0x3f38fb68	0.72258615
68	0x3f5828e8	0.8443742
69	0xbf2b9fca	-0.67040694
70	0xbe0e7c60	-0.13914633
71	0xbf02ba7b	-0.51065797
72	0xbd939508	-0.0720616
73	0x3dfcabcb	0.123374544
74	0x3cb23e4f	0.021758227
75	0x3d426291	0.04745728
76	0x3e5d7930	0.2162826
77	0x3e709d15	0.23497422
78	0xbf2ceac1	-0.67545706
79	0xbf7a31c3	-0.9773218
80	0xbf7f7d7c	-0.9980085
81	0xbf2a0e54	-0.66428113
82	0xbf485fda	-0.7827126
83	0xbe4de27a	-0.20105925
84	0x3f1d144f	0.61359113
85	0xbe8512fa	-0.2599104
86	0xbf311073	-0.69165725
87	0xbee2065a	-0.4414547
88	0x3c96f5cc	0.018427752
89	0x3ed44cd6	0.4146487
90	0x3e912517	0.2834861
91	0xbeb0301a	-0.344117
92	0xbc7c875b	-0.015413131
93	0x3e4b3336	0.19843754
94	0x3f235180	0.63796234
95	0xbdbd8cdf	-0.09255385
96	0x3dee4990	0.11635125
97	0x3e102852	0.14077881
98	0xbe4de8fb	-0.20108406
99	0x3e65d6e1	0.22445251
100	0x3d87947e	0.066201195
101	0x3e9c73ac	0.30557
102	0x3ec57905	0.38568893
103	0x3ee4520a	0.4459384
104	0xbee9ed4c	-0.45688856
105	0xbf1f5ef6	-0.62254274
106	0x3e2a7476	0.16645989
107	0x3ecc62a1	0.39918998
108	0xbeffe488	-0.49979043
109	0xbf4f2cf9	-0.80928
110	0x3e51baa8	0.2048136
111	0x3ebbf570	0.3671069
112	0xbf02be05	-0.51071197
113	0xbeecf589	-0.46281078
114	0x3f3fed37	0.74971336
115	0xba57ef14	-0.00082372245
116	0xbfa346bd	-1.2755963
117	0xbfd41690	-1.6569386
118	0xbf68d9a9	-0.90957123
119	0x3edda8fe	0.43292993
120	0xbf29327f	-0.66092676
121	0xbf8c7fd7	-1.0976514
122	0xbfb6ddbc	-1.4286418
123	0xbf9a91c7	-1.2075738
124	0xbdc58a4f	-0.09645521
125	0xbf328325	-0.6973136
126	0xbdb87bd7	-0.090079956
127	0x3f33a695	0.7017606
128	0x3da25114	0.07925621
129	0x3e437072	0.19085863
130	0x3ea2aa54	0.31770575
131	0x3f04152c	0.51594806
132	0x3f09af22	0.53782856
133	0xbe408372	-0.18800142
134	0x3f010c15	0.5040906
135	0x3e3205e7	0.17385064
136	0xbe6e2016	-0.23254427
137	0xbe86a26e	-0.262958
138	0x3e844b5a	0.2583874
139	0x3e3d8f4b	0.18511693
140	0x3c003721	0.007825644
141	0xbeb2a372	-0.34890324
142	0x3dae63e6	0.08515148
143	0x3ef6782f	0.48138568
144	0xbe3ce0ae	-0.18445083
145	0x3d8d7506	0.06907086
146	0xbc1f86e1	-0.0097367475
147	0xbec56028	-0.38549924
148	0x3d19ed23	0.037579667
149	0xbe1676f1	-0.1469381
150	0xbf5e8adc	-0.8693063
151	0xbe210a0a	-0.15726486
152	0x3e8b34fc	0.2718886
153	0xbf17d47c	-0.593086
154	0xbeb63bef	-0.355926
155	0x3e43cb36	0.19120488
156	0x3eaadd34	0.3337189
157	0x3d0ada7c	0.03389977
158	0xbf5b1233	-0.85574645
159	0x3eaed33c	0.34145534
160	0x3ef896a5	0.48552433
161	0x3f303ce5	0.6884292
162	0xbe4e071b	-0.20119898
163	0xbe0d3c67	-0.13792573
164	0x3e9bccb8	0.30429626
165	0xbcc3a035	-0.023880104
166	0x3e22b01d	0.15887494
167	0xbdacc002	-0.0843506
168	0xbe3d9715	-0.18514664
169	0xbe233165	-0.15936811
170	0xbf4f4bcd	-0.8097504
171	0xbf8aace3	-1.0834011
172	0xbec29980	-0.38007736
173	0x3e2bb13c	0.16766828
174	0xbf41c690	-0.7569361
175	0x3f587bbb	0.845638
176	0x3e6bf385	0.23042114
177	0x3eb33355	0.350001
178	0x3f1733d0	0.59063435
179	0xbb83a62d	-0.0040176124
180	0xbdbca1e2	-0.09210564
181	0xbe86cb16	-0.26326817
182	0x3c5cc3e3	0.013474437
183	0x3eed7118	0.46375346
184	0xbf876c39	-1.0579902
185	0xbf260f1a	-0.64866793
186	0xbf5c718a	-0.86110747
187	0xbf59249a	-0.84821475
188	0xbf8d0ab5	-1.1018893
189	0xbf25d3c2	-0.6477624
190	0xbe2424a4	-0.16029602
191	0x3cd3090a	0.025761146
192	0xbdafa303	-0.08576014
193	0xbf48404b	-0.78223103
194	0xbd556d3b	-0.052106123
195	0x3f2e6c4a	0.68133986
196	0x3f1d0337	0.6133303
197	0xbda924bd	-0.082589604
198	0xbe36e123	-0.1785932
199	0x3ef29189	0.4737666
200	0x3f158e91	0.58420664
201	0xbdec22a6	-0.11530046
202	0xbea2c483	-0.31790552
203	0x3d18a4d1	0.037266556
204	0x3ec00949	0.37507084
205	0x3ea7634f	0.32692954
206	0x3e959067	0.29211733
207	0xbf07d9b8	-0.5306659
208	0xbe24f993	-0.1611083
209	0x3f3fb65a	0.7488762
210	0x3e86d362	0.26333147
211	0xbd757393	-0.059924673
212	0xbec73f1e	-0.38915342
213	0xbf296411	-0.66168314
214	0x3ebbcf37	0.3668153
215	0x3f3c100f	0.73462003
216	0x3ee73764	0.45159447
217	0xbe80cb0e	-0.25154918
218	0xbd3cfe2d	-0.04614084
219	0xbe2b7ecf	-0.16747592
220	0x3f3527b4	0.7076371
221	0x3efd95bb	0.49528298
222	0xbec5d3c5	-0.3863813
223	0x3ead913f	0.33899876
224	0xbe25b129	-0.16180862
225	0xbe4a92f2	-0.19782618
226	0x3ee46fe7	0.44616625
227	0x3f055116	0.5207685
228	0xbeceba20	-0.40376377
229	0x3eb442bc	0.35207164
230	0xbe668811	-0.22512843
231	0x3f14fe9f	0.5820102
232	0x3f1a8a27	0.60367054
233	0xbf8fdc46	-1.1239097
234	0x3f2c3554	0.6726887
235	0x3d735c0c	0.059413955
236	0xbd0310c1	-0.0319984
237	0x3e5dd3c1	0.21662809
238	0xbea33a07	-0.3188021
239	0x3d815352	0.0631472
240	0x3e0fa305	0.14027031
241	0x3e9b7e59	0.30369833
242	0xbe272570	-0.16322875
243	0x3e8c68d3	0.27423725
244	0x3f32583d	0.6966589
245	0x3e7aa2b5	0.2447613
246	0x3eee0b89	0.46493176
247	0xbe8033b3	-0.25039443
248	0x3f168022	0.58789265
249	0x3f796d2d	0.97432214
250	0xbf03fdc6	-0.515591
251	0xbf12bdc6	-0.5732082
252	0xbe52f639	-0.20601739
253	0xbcbd8517	-0.023134751
254	0x3e65bb23	0.22434668
255	0xbed23319	-0.4105461

bias f4 [20]
0	0xbd7cd805	-0.06172945
1	0xbf0ab24c	-0.5417831
2	0x3e921378	0.28530478
3	0x3abb3766	0.0014283478
4	0xbeeafc43	-0.45895585
5	0xbeff80fe	-0.499031
6	0xbe0895e4	-0.13338429
7	0x3e71c35d	0.23609681
8	0xbe3572bd	-0.1771955
9	0xbe7781e8	-0.24170649
10	0xbe6c91d2	-0.23102501
11	0x3debe0f6	0.11517517
12	0xbf383aa9	-0.7196451
13	0xbe9bfd2a	-0.30466586
14	0xbe3d1b78	-0.1846751
15	0xbd8cd773	-0.06877031
16	0xbdbd1cc7	-0.092340045
17	0x3da9cd22	0.08291079
18	0xbe061de0	-0.13097334
19	0xbe57a2e2	-0.21058229

weight f4 [50, 320]
0	0xbd2c7b34	-0.042109683
1	0xbf6ec9cc	-0.9327667
2	0xbf2a915c	-0.6662805
3	0xbf4824e6	-0.781813
4	0xbe26e9c2	-0.16300109
5	0x3eac3520	0.3363428
6	0xbeb48c4e	-0.35263294
7	0xbf031ab9	-0.5121265
8	0x3e42d1a7	0.19025289
9	0x3e72239e	0.236464
10	0xbf7e6772	-0.99376595
11	0xbe9eb1e2	-0.3099509
12	0x3ed68e0a	0.41905242
13	0x3e829c3a	0.25509816
14	0x3e416407	0.18885814
15	0x3dc52146	0.09625487
16	0xbee5e955	-0.4490458
17	0xbdbece37	-0.09316676
18	0xbed7cdfc	-0.4214934
19	0xbe518714	-0.20461684
20	0xbe9b83e9	-0.30374077
21	0x3eaf022b	0.34181342
22	0x3eb24f85	0.34826294
23	0xbfbd0108	-1.476594
24	0x3daf941f	0.08573174
25	0x3ca17eb1	0.019713731
26	0x3d92846c	0.07154164
27	0xbf005c1b	-0.5014054
28	0xbe39d5be	-0.18147942
29	0x3d8fdcc5	0.0702453
30	0xbe27c957	-0.16385399
31	0xbf26c88f	-0.6514978
32	0xbe50052e	-0.20314476
33	0x3e17565c	0.14779037
34	0x3e18fadf	0.1493945
35	0x3e6c918e	0.231024
36	0xbf559787	-0.8343434
37	0x3cac76a9	0.021052675
38	0xbd8687af	-0.06568848
39	0xbe4f5362	-0.20246652
40	0x3e179306	0.14802179
41	0x3e80b711	0.2513967
42	0xbe992dc8	-0.2991774
43	0xbfa63990	-1.2986317
44	0x3e5a7c40	0.2133646
45	0x3f0943dc	0.5361917
46	0xbf6126be	-0.8794974
47	0xbfee3515	-1.8609949
48	0x3e1f68e0	0.1556735
49	0x3e1d499a	0.15360108
50	0x3dbf4126	0.09338598
51	0x3e5d973e	0.21639726
52	0x3e5703eb	0.20997588
53	0x3e93c787	0.28863165
54	0x3d6f806a	0.058472075
55	0xbf129898	-0.5726409
56	0xbe408b91	-0.1880324
57	0xbf749e6a	-0.9555422
58	0xbf205d17	-0.62642044
59	0xbd821e8c	-0.063534826
60	0xbf8ef44e	-1.1168306
61	0xbfafdb23	-1.373875
62	0xbebbd07c	-0.36682498
63	0x3f16194c	0.5863235
64	0x3de6a29a	0.112614825
65	0xbeaf8d94	-0.34287703
66	0xbe7649a2	-0.24051526
67	0xbe18a300	-0.1490593
68	0xbe9db10f	-0.30799147
69	0xbdc6eb80	-0.09712887
70	0xbc2de6ed	-0.010614139
71	0xbd32b250	-0.043627083
72	0xbeafa577	-0.34305927
73	0xbee902ff	-0.45510098
74	0xbe18dfcb	-0.1492912
75	0x3e38d7e5	0.18051107
76	0xbe0409f8	-0.12894428
77	0x3ec13001	0.37731937
78	0x3d092cb2	0.03348989
79	0xbe5219a9	-0.20517601
80	0xbe4a70e0	-0.19769621
81	0x3e3da37d	0.18519397
82	0x3e13bf7e	0.14428517
83	0x3e6c7313	0.23090772
84	0xbcf3fcd3	-0.029783642
85	0x3e23f1de	0.16010234
86	0xbe027be1	-0.12742569
87	0xbf84a6ca	-1.03634
88	0x3e150627	0.14553128
89	0xbd06bd4d	-0.032895375
90	0xbe0de415	-0.13856538
91	0xbf9b71c2	-1.2144091
92	0x3e8ab22a	0.27089053
93	0x3e1d84c0	0.15382671
94	0xbf2f5329	-0.6848627
95	0xbef077b8	-0.46966338
96	0x3ec7605b	0.389407
97	0x3e5f23d1	0.21791007
98	0xbf9656ce	-1.1745241
99	0xbf838ae5	-1.0276762
100	0xbe095cbc	-0.13414282
101	0xbf0c985d	-0.5491999
102	0xbe4cd871	-0.20004441
103	0xbf4006b0	-0.75010204
104	0xbf673a9e	-0.9032382
105	0xbdd63d49	-0.10460908
106	0x3e6c5ef6	0.230831
107	0x3e2ebb2b	0.17063586
108	0xbf166943	-0.58754367
109	0x3f4c69d3	0.79848975
110	0x3eff55fd	0.4987029
111	0x3cf8442f	0.03030595
112	0x3e583ffa	0.21118155
113	0xbd1db807	-0.03850558
114	0xbfc0244f	-1.501108
115	0xbf8c3f2c	-1.0956779
116	0xbf5511dd	-0.8323038
117	0x3e8e496e	0.27790397
118	0xbf2cb358	-0.67461157
119	0xbdeb1da6	-0.11480264
120	0x3da4ea20	0.08052468
121	0xbe8eb897	-0.27875206
122	0xbed7182e	-0.42010635
123	0xbde42957	-0.111406974
124	0x3f05f1fd	0.5232237
125	0x3e67b7c0	0.22628689
126	0x3f5456e5	0.8294509
127	0xbc8063af	-0.015672533
128	0xbf25f09d	-0.6482027
129	0xbfab2428	-1.3370409
130	0xbf617658	-0.88071203
131	0xbf5c0bfd	-0.8595579
132	0x3f159fbc	0.5844686
133	0x3f2d7a51	0.67764765
134	0x3e221231	0.15827252
135	0x3ecf3c39	0.40475634
136	0xbf732645	-0.9498027
137	0xbed16b6e	-0.40902275
138	0x3d3a8988	0.045541316
139	0x3e77f2ef	0.24213766
140	0x3f13f219	0.57791287
141	0x3f8148fc	1.0100398
142	0x3ee717da	0.45135385
143	0x3d48cc3a	0.04902289
144	0xbefcea6c	-0.493976
145	0x3e951b4a	0.29122382
146	0xbdd7820f	-0.105228536
147	0xbf2848e9	-0.6573625
148	0xbe1f607c	-0.1556415
149	0x3e8b7221	0.2723551
150	0x3e310ebf	0.17290781
151	0xbdf2db6e	-0.11858259
152	0x3eaa1a2f	0.33223101
153	0x3b44ed5c	0.0030048704
154	0xbe860ee9	-0.2618325
155	0xbe8c4878	-0.2739904
156	0x3e413708	0.18868649
157	0xbe8c1253	-0.2735773
158	0xbed36dcb	-0.41294703
159	0xbec01605	-0.375168
160	0xbf2319af	-0.63711065
161	0x3e678d9e	0.22612616
162	0xbf012978	-0.504539
163	0xbe7e85a0	-0.24855661
164	0x3d063b55	0.032771427
165	0x3e9d3749	0.30706242
166	0xbdd6a6f8	-0.104810655
167	0xbf1a76c4	-0.6033747
168	0xbdb81737	-0.08988803
169	0x3deb9186	0.11502366
170	0xbeab39ef	-0.33442637
171	0xbef7c6d6	-0.48393887
172	0x3eb7605b	0.358157
173	0x3e52c24b	0.2058193
174	0xbe2bff37	-0.16796575
175	0xbef011fb	-0.46888718
176	0x3e84c6c5	0.259329
177	0x3f6f64a7	0.9351296
178	0x3ecf48f4	0.40485346
179	0x3f21e4b8	0.6323962
180	0xbdc4d680	-0.09611225
181	0x3ef9e614	0.48808348
182	0x3cde5220	0.02713877
183	0xbf166884	-0.5875323
184	0x3ee28580	0.44242477
185	0x3f1295f4	0.5726006
186	0xbf551e8d	-0.8324974
187	0xbf9ae4ed	-1.2101113
188	0xbe76ea79	-0.24112882
189	0xbee8ec4f	-0.4549279
190	0xbff5b7b5	-1.9196688
191	0xbfa6ee2a	-1.3041432
192	0x3e8da519	0.27665022
193	0xbd270e69	-0.040785227
194	0x3e878f05	0.26476303
195	0x3d2ff9e9	0.042962942
196	0xbe478d3d	-0.19487472
197	0x3dfb890c	0.12281999
198	0xbf1e352f	-0.617999
199	0xbeffc4cb	-0.4995483
200	0x3e3e0c82	0.18559459
201	0x3d85ef36	0.065397665
202	0xbf3e905a	-0.74439013
203	0xbf87e424	-1.0616498
204	0xbff70402	-1.9298098
205	0xbfd0d19f	-1.6313971
206	0xbff2dcb5	-1.8973604
207	0xbf85e4ff	-1.0460509
208	0xbe1d321e	-0.1535115
209	0x3f2403ad	0.6406811
210	0x3e9e5a39	0.3092821
211	0x3ead5864	0.338565
212	0xbe394a31	-0.18094708
213	0xbe6b7f76	-0.22997841
214	0xbe4bf4f9	-0.19917668
215	0xbfac961b	-1.3483309
216	0x3e9408f6	0.28913087
217	0x3e486953	0.19571428
218	0xbdd0b122	-0.101900354
219	0x3e99dcfa	0.30051404
220	0x3ef82ba5	0.48470798
221	0x3da50195	0.080569424
222	0xbfb56bb1	-1.417349
223	0xbf164d5a	-0.5871178
224	0x3ec2a0fe	0.38013452
225	0x3e5fc09e	0.21850821
226	0x3e10f1f9	0.14154805
227	0x3e8609b0	0.26179266
228	0x3ee868d7	0.45392486
229	0xbee00a89	-0.43758038
230	0x3db3144f	0.08744108
231	0x3e0b7c0d	0.1362154
232	0xbe88573d	-0.26629058
233	0xbf3ee966	-0.7457489
234	0xbf86a816	-1.0520046
235	0xbf1a8a07	-0.60366863
236	0xbf267e11	-0.6503611
237	0xbf9c1d1b	-1.2196382
238	0xbf99bb04	-1.2010198
239	0xbff2f6f1	-1.898161
240	0x3efdddc1	0.49583247
241	0xbef0d081	-0.47034076
242	0xbc8115ef	-0.015757529
243	0x3f0849a2	0.53237355
244	0xbc4cbcc0	-0.012496173
245	0xbd8615b3	-0.065471075
246	0xbe64d703	-0.22347645
247	0xbfbc02c1	-1.468834
248	0x3e938a3c	0.28816402
249	0xbf1c13da	-0.6096779
250	0xbfec65cc	-1.8468566
251	0xbfafd874	-1.3737931
252	0xbe94dc14	-0.29074156
253	0xbf224819	-0.6339126
254	0xbc4c45cc	-0.012467813
255	0x3f136faa	0.5759226

bias f4 [50]
0	0x3e8e2b05	0.27767196
1	0xbe212aa2	-0.1573892
2	0x3ed69e59	0.41917685
3	0x3e19df32	0.15026549
4	0x3feddea5	1.8583571
5	0xbf979c9c	-1.1844668
6	0x3e83ea88	0.2576487
7	0x40025d58	2.0369473
8	0x3eef2a89	0.4671214
9	0x3f3c5d41	0.73579794
10	0x3fa9a730	1.3254147
11	0xbda82091	-0.082093365
12	0x3e1585ce	0.14601824
13	0xbeb0a9ad	-0.34504452
14	0x3fdec2f7	1.7403249
15	0xbecdc725	-0.40190998
16	0x3ee732b5	0.45155874
17	0xbe29be53	-0.16576509
18	0x3db5932e	0.08865963
19	0xbddb64a4	-0.10712555
20	0x3e3a1b80	0.18174553
21	0xbe5c531f	-0.21516083
22	0x3fa654cf	1.2994632
23	0xbd4c6d07	-0.049908664
24	0x3e11adb7	0.14226423
25	0x3f24c7c4	0.6436732
26	0x4004929b	2.071448
27	0x3fb69171	1.4263135
28	0x3f25d363	0.64775676
29	0xbf779ea4	-0.9672644
30	0xbe29bc4c	-0.16575736
31	0x3e84a340	0.259058
32	0x3ea95f21	0.3308039
33	0x3e092e8a	0.1339666
34	0xbd20c40e	-0.039249472
35	0x3f5532ea	0.83280814
36	0x3ebbc1b9	0.36671236
37	0x3f885212	1.0650046
38	0xbd1795d9	-0.03700814
39	0x3f812042	1.0087969
40	0x3e341510	0.1758616
41	0x3f56a12f	0.83839697
42	0xbec9aee1	-0.39391235
43	0xbd2bd2bd	-0.041949023
44	0x3f11751d	0.56819326
45	0x3f02bba3	0.5106756
46	0xbd01f839	-0.031730864
47	0xbe8b330d	-0.27187386
48	0xbe0c3918	-0.13693655
49	0xbe6f50ac	-0.23370618

weight f4 [16, 50]
0	0xbc3f3da3	-0.01167241
1	0xbe1fffb1	-0.15624882
2	0xbdc89d70	-0.09795654
3	0xbe2700ad	-0.16308852
4	0x3d655185	0.055985946
5	0xbe086c8c	-0.13322657
6	0xbd7b1fce	-0.06130963
7	0xbd86f345	-0.06589369
8	0xbd152a66	-0.036417387
9	0xbd7c6bed	-0.061626364
10	0xbd639262	-0.055559523
11	0x3d228c90	0.039684832
12	0xbd763f60	-0.060119033
13	0x3baf9f43	0.0053595616
14	0xbd0e98ab	-0.034813564
15	0x3c1c317f	0.009533285
16	0xbe5615c4	-0.2090674
17	0x3dae1177	0.08499425
18	0x3d655b40	0.055995226
19	0xbbfa3bc7	-0.0076365205
20	0x3ce0ae28	0.027426794
21	0xbdd926c4	-0.10603097
22	0x3a8c1393	0.0010686986
23	0xbb6f2a5a	-0.003649375
24	0x3e9693ba	0.2940958
25	0x3e9d1c13	0.3068548
26	0xbd28d782	-0.04122115
27	0x3deae3c5	0.11469225
28	0xbd5c86d3	-0.053839516
29	0x3cba25a6	0.02272303
30	0x3e675bda	0.22593632
31	0xbe76779c	-0.24069065
32	0x3c496bd1	0.012293772
33	0x3dd4f898	0.10398978
34	0x3e6bbf41	0.23022176
35	0xbeba6ead	-0.36412564
36	0x3d165904	0.036705986
37	0xbe9a0c41	-0.30087474
38	0x3e04c994	0.12967521
39	0xbd18c92a	-0.03730122
40	0x3db9121d	0.09036658
41	0x3ceb567e	0.028727766
42	0x3dd3c797	0.10340803
43	0xbdef1cd7	-0.11675423
44	0xbe9812f0	-0.29701948
45	0xbdb63302	-0.08896448
46	0xbcfa4e32	-0.030554865
47	0xbd2f27a8	-0.04276243
48	0xbc45735c	-0.01205143
49	0x3d240208	0.040041
50	0xbdfbfa80	-0.123036385
51	0x3d91fbb9	0.071280904
52	0x3d593a09	0.053033862
53	0xbd8a5005	-0.06753544
54	0xbd2361f3	-0.039888334
55	0xbe80ff5c	-0.25194824
56	0x3d11f764	0.03563632
57	0xbe2655de	-0.16243693
58	0x3d189fb6	0.037261687
59	0x3d79dcfe	0.06100177
60	0x3d5d5d90	0.054044306
61	0xbcaf4f9a	-0.021400262
62	0xbcd47724	-0.025935717
63	0x3db21a45	0.08696417
64	0xbd26a7e5	-0.04068746
65	0x3dd73c7b	0.105095826
66	0x3d80b5a7	0.062846474
67	0xbd23e9a9	-0.040017758
68	0xbd3a5d1b	-0.04549895
69	0x3d261dc2	0.040555723
70	0xbcf6d45d	-0.03013056
71	0x3cd558db	0.026043346
72	0xbd8a5a5b	-0.06755515
73	0xbd76ea4c	-0.060282037
74	0x3cd30e43	0.025763636
75	0xbc76a93b	-0.015054996
76	0x3cf153b8	0.029458866
77	0x3d782785	0.060584564
78	0x3da149d7	0.07875412
79	0xbdb62828	-0.08894378
80	0xbcd6a51c	-0.026201777
81	0xbdc04831	-0.093887694
82	0x3d439d02	0.047757156
83	0x3ad451b4	0.0016198666
84	0x3ce7a2a7	0.0282758
85	0x3def14c4	0.116738826
86	0xbe255fa3	-0.16149764
87	0x3d619e9f	0.055082913
88	0x3ca55b4b	0.020185133
89	0xba1eb409	-0.0006054049
90	0xbcf2a694	-0.029620446
91	0x3c583846	0.01319701
92	0x3c8d7ba2	0.017270867
93	0xbd6132c6	-0.054980062
94	0x3cdb6f44	0.026786454
95	0xbc072bfb	-0.008250232
96	0xbd1822b7	-0.03714248
97	0xbd434fd4	-0.047683552
98	0xbc087bae	-0.008330269
99	0x3d855f4e	0.065123186
100	0xbd7afa46	-0.061273836
101	0xbeda807a	-0.42676145
102	0xbe4a8c0f	-0.1977999
103	0x3d0c632e	0.034274273
104	0x3d0f2753	0.034949612
105	0x3ed89279	0.4229925
106	0x3e32d818	0.17465246
107	0x3df35381	0.118811615
108	0x3e504a90	0.20340943
109	0xbe22a618	-0.15883672
110	0x3d89e366	0.06732826
111	0xbca25341	-0.01981509
112	0xbd8ce1cf	-0.06879007
113	0x3e9c26b3	0.30498275
114	0x3e618fce	0.22027513
115	0xbd072b2b	-0.033000153
116	0xbcb41398	-0.021982
117	0x3dd62d1b	0.10457822
118	0x3e85201f	0.2600107
119	0x3dc4b703	0.09605219
120	0xbd08eaf8	-0.03342721
121	0x3e35bc97	0.17747723
122	0xbe20e22c	-0.15711278
123	0x3d26fd67	0.040769007
124	0x3eb74b63	0.35799703
125	0x3d511d76	0.051053487
126	0xbe499a3f	-0.19687746
127	0x3e2b44a3	0.16725402
128	0x3d4ff36c	0.050769255
129	0x3d7c55b6	0.061605178
130	0x3e9c7b27	0.30562708
131	0xbe713433	-0.23555069
132	0x3bce4fe9	0.006296147
133	0x3e9c14bf	0.30484578
134	0x3e181079	0.14850034
135	0xbec33785	-0.38128296
136	0xbca2349d	-0.019800479
137	0xbe2e0843	-0.16995339
138	0xbe20e752	-0.15713242
139	0x3e8dd178	0.27698874
140	0x3e114a64	0.14188534
141	0xbd9494fe	-0.072549805
142	0x3dd517d2	0.10404934
143	0x3d5e2dd6	0.05424293
144	0x3ae7a916	0.0017674293
145	0x3e87d129	0.26526764
146	0x3e80a148	0.25123048
147	0xbdfefcd5	-0.12450568
148	0xbd2be877	-0.041969743
149	0xbd3865cf	-0.045018967
150	0xbefcf794	-0.49407637
151	0xbd82fb84	-0.06395629
152	0xbf085ec5	-0.53269607
153	0x3e9e8e83	0.30968103
154	0xbea13e63	-0.3149291
155	0x3e8a34af	0.2699332
156	0x3d8b88a9	0.06813175
157	0x3e591dd1	0.2120278
158	0xbe2bf58c	-0.16792887
159	0xbcbc5f1e	-0.022994574
160	0xbe6344e2	-0.22194245
161	0xbd9f54d7	-0.07779854
162	0xbe3f5142	-0.18683341
163	0x3f06aa66	0.5260376
164	0x3f01f180	0.50759125
165	0xbe4b405f	-0.19848774
166	0x3ea40422	0.32034403
167	0xbea802e8	-0.32814717
168	0xbe966f69	-0.29381874
169	0xbd9aa8a5	-0.07551698
170	0xbed7bec2	-0.42137724
171	0x3df371d4	0.11886945
172	0xbe008c97	-0.12553631
173	0xbd68a533	-0.05679817
174	0x3dd9dfa5	0.1063836
175	0x3c865355	0.016397158
176	0xbd77de6c	-0.060514852
177	0xbc3cbc20	-0.011519462
178	0xbf071b8b	-0.527764
179	0x3e33144a	0.17488208
180	0x3ea54081	0.32275775
181	0xbe3309c8	-0.174842
182	0xbde95455	-0.11393038
183	0xbdd55214	-0.10416046
184	0x3e068376	0.13136086
185	0x3d960159	0.07324476
186	0xbe5f5674	-0.21810323
187	0xbcef518d	-0.029213691
188	0x3e8dab2f	0.27669665
189	0x3f0247de	0.5089091
190	0xbea728ff	-0.32648465
191	0x3d8eb790	0.069686055
192	0x3d81ac8f	0.06331741
193	0x3e1a4d79	0.15068616
194	0x3e8379b9	0.25678805
195	0x3d9e6768	0.07734567
196	0xbe37e50a	-0.17958465
197	0xbec3623f	-0.38160893
198	0xbd920527	-0.07129889
199	0xbdc5444d	-0.09632168
200	0xbcbd7b33	-0.023130035
201	0xbdd27ae2	-0.10277344
202	0x3d8e4edb	0.06948634
203	0x3e4d846e	0.20070049
204	0x3ea78ce0	0.32724667
205	0xbe01250f	-0.12611793
206	0x3dd65b4f	0.104666345
207	0x3e8d9aab	0.27657065
208	0xbe13ebc5	-0.14445408
209	0x3e90ed93	0.28306255
210	0x3e735fe9	0.23767056
211	0x3ceed739	0.02915536
212	0xbe407dff	-0.18798064
213	0xbe1e972c	-0.15487355
214	0x3e04bff7	0.12963854
215	0xbde09901	-0.10966683
216	0xbd883406	-0.06650548
217	0x3d2cf54a	0.042226113
218	0x3e586291	0.2113135
219	0xbece3383	-0.40273675
220	0xbe237f4d	-0.1596653
221	0x3cf669a9	0.03007968
222	0xbeca59a9	-0.3952153
223	0x3e41d7ed	0.18930025
224	0xbeb091f6	-0.3448636
225	0x3ed3018d	0.4121212
226	0x3dd5b174	0.10434237
227	0x3d820dc7	0.06350284
228	0x3d8fc8a9	0.07020695
229	0x3e6fba27	0.23410855
230	0xbdfe3267	-0.12411957
231	0xbe422c82	-0.18962291
232	0x3ea34bf8	0.31893897
233	0xbca24b70	-0.019811362
234	0xbebf55b3	-0.3737007
235	0xbee34638	-0.4438951
236	0xbcd0b8c3	-0.025478726
237	0x3e38b7bb	0.18038838
238	0xbe5a8010	-0.21337914
239	0x3ed20101	0.4101639
240	0xbe91e77d	-0.28496924
241	0x3e9e1cbe	0.30881304
242	0xbe2da09f	-0.16955803
243	0x3aedb631	0.0018135962
244	0xbe1488b5	-0.14505275
245	0xbe42af8d	-0.1901228
246	0xbe686f5c	-0.2269873
247	0xbdf301f8	-0.1186561
248	0x3ef93e23	0.4868022
249	0xbc2710f9	-0.010196918
250	0xbd02c6a7	-0.03192773
251	0x3ec416a8	0.38298535
252	0x3d9a1759	0.075239845
253	0x3ea807dc	0.32818496
254	0xbe81037b	-0.25197968
255	0x3e17aba7	0.14811574

bias f4 [16]
0	0xbc026ca8	-0.007960476
1	0xbe1844dc	-0.14870018
2	0xbf811f28	-1.0087633
3	0x3f75b7be	0.95983493
4	0x3dba222d	0.0908855
5	0xbf8d6a09	-1.1047984
6	0xbf06e4b1	-0.52692705
7	0xbf4b6d27	-0.7946343
8	0x3b31c73b	0.0027126807
9	0x3e833f84	0.25634396
10	0x3d5826ce	0.052771382
11	0xbe0a23b2	-0.13490179
12	0x3ed26d02	0.4109879
13	0x3f36804c	0.71289515
14	0xbca6eb0c	-0.020375751
15	0x3d460dbd	0.048352946

weight f4 [10, 16]
0	0xbe10c7e8	-0.14138758
1	0x3cd53163	0.026024526
2	0xbe221dee	-0.1583173
3	0x3e9acbee	0.3023371
4	0xbd164220	-0.036684155
5	0x3df0ff71	0.117674716
6	0x3d06a163	0.032868754
7	0x3bbe2c80	0.0058036447
8	0x3c3d9910	0.0115721375
9	0xbe31e513	-0.17372541
10	0xbc7eb2eb	-0.015545587
11	0xbe53b666	-0.20675048
12	0xbbe8187a	-0.007082996
13	0x3e15793c	0.14597028
14	0xbd0f32db	-0.03496061
15	0xbce8c0eb	-0.028412303
16	0x3db2c621	0.08729196
17	0x3d2f068e	0.04273086
18	0x3c0bc9e4	0.008532021
19	0x3e54be27	0.20775662
20	0x3e692085	0.22766311
21	0xbef614fb	-0.48062882
22	0x3e095a70	0.13413405
23	0x3c2bf58f	0.010495557
24	0x3d4b48e1	0.04963005
25	0x3d4ad36e	0.04951804
26	0x3db55acf	0.08855211
27	0xbe0f3ec3	-0.13988785
28	0xbdd68bb5	-0.10475866
29	0xb90d2c62	-0.00013463342
30	0x3c0efde2	0.008727523
31	0x3d90a568	0.07062799
32	0x3d1ee2ed	0.038790632
33	0x3dc5b366	0.09653358
34	0x3caf6c5f	0.02141398
35	0x3e216c32	0.1576393
36	0x3e6413ff	0.22273253
37	0x3e41f010	0.18939233
38	0x3d36730b	0.044543307
39	0x3ce069e8	0.02739425
40	0x3cd237b3	0.025661325
41	0x3e805191	0.2506223
42	0x3d92b91b	0.07164212
43	0xbe032941	-0.12808706
44	0xbd84242a	-0.0645221
45	0x3b71744f	0.0036843007
46	0xbd678c19	-0.056530092
47	0x3db332a4	0.08749893
48	0x3cbde1b5	0.023178915
49	0x3d668e17	0.05628785
50	0x3db1c5d5	0.086803116
51	0xbb55e3a0	-0.0032636896
52	0xbd9b3c67	-0.0757988
53	0xbd1416b1	-0.036154453
54	0x3dc63b4b	0.09679278
55	0x3cbd9dad	0.023146475
56	0x3d8fe648	0.070263445
57	0x3e80a4a0	0.251256
58	0x3bbfe663	0.0058563217
59	0xbe4042e8	-0.18775523
60	0xbd2337ca	-0.039848126
61	0xbe68bc49	-0.22728075
62	0xbcba15bf	-0.022715447
63	0xbe3a4dfe	-0.18193814
64	0xbcaa211b	-0.020767739
65	0x3d8dcc45	0.06923727
66	0x3d3b268f	0.04569107
67	0xbe16812e	-0.14697716
68	0xbd0c5539	-0.034260962
69	0xbc4f152b	-0.012639324
70	0x3d51f157	0.05125555
71	0x3d1161a6	0.035493515
72	0x3d32ad83	0.043622505
73	0xbe10edda	-0.14153233
74	0x3bd43306	0.006475809
75	0xbe1e67e5	-0.1546932
76	0xbc9dc665	-0.019259641
77	0xbd0bd97d	-0.03414296
78	0xbd3b6e8a	-0.045759715
79	0x3eb8c546	0.36088008
80	0x3ddd4555	0.1080424
81	0x3da4e6d8	0.080518425
82	0x3e768997	0.24075924
83	0x3c3e0ba1	0.011599452
84	0xbe09dc21	-0.13462879
85	0x3c2d61c1	0.010582388
86	0x3dd22eb5	0.10262815
87	0x3b405cca	0.0029352182
88	0x3c851834	0.016246893
89	0xbe4c88d3	-0.1997407
90	0x3bcb3ad6	0.006202082
91	0xbe439179	-0.19098462
92	0xbd080c86	-0.03321507
93	0xbe12e5e0	-0.14345503
94	0x3c0e4bb1	0.008685038
95	0xbe5ab848	-0.2135936
96	0xbc242ad9	-0.010019981
97	0x3cf4baeb	0.029874286
98	0x3e84a714	0.2590872
99	0x3eba1541	0.3634434
100	0xbe1ccb37	-0.15311895
101	0x3cc79994	0.024365224
102	0x3ca426df	0.020038066
103	0x3d35f0a4	0.044418946
104	0x3d4dd94e	0.050256066
105	0xbe73adc8	-0.23796761
106	0xbb12b9f2	-0.0022388664
107	0xbe14558f	-0.14485763
108	0xbcf1816e	-0.029480662
109	0xbde6ed46	-0.11275725
110	0x3cf2ce9a	0.02963953
111	0x3db6ca7c	0.089253396
112	0x3b0a2e53	0.002108474
113	0x3d8a03cf	0.06739008
114	0x3d05ae86	0.03263714
115	0xbe6b4614	-0.22975951
116	0x3e31afe4	0.17352253
117	0x3d3448f7	0.044014897
118	0x3d105bcb	0.03524379
119	0x3af2234f	0.0018473658
120	0x3d4997ab	0.049216907
121	0x3e2b2abc	0.1671552
122	0xbd36440a	-0.04449848
123	0xbe481380	-0.19538689
124	0x3d63cf6c	0.055617735
125	0x3e4b7691	0.19869448
126	0x3b97390b	0.0046149543
127	0x3c11ad29	0.008891382
128	0x3e06e568	0.13173449
129	0x3d83d075	0.064362444
130	0x3e04758b	0.12935464
131	0x3e2b45b6	0.16725811
132	0xbea31ac4	-0.31856358
133	0x3bcda99a	0.0062763216
134	0x3c6055e0	0.013692349
135	0xbc8622a4	-0.01637394
136	0x3d2fd1aa	0.04292456
137	0x3e31e151	0.17371108
138	0x3bf16b5b	0.007367534
139	0xbe14b091	-0.1452048
140	0xbc6ab312	-0.01432492
141	0x3e19661f	0.14980362
142	0xbd854ca3	-0.06508758
143	0x3cefe256	0.02928273
144	0xbbffc111	-0.0078049977
145	0x3cdfe9f7	0.027333243
146	0xbd022141	-0.031769995
147	0xbe91f19f	-0.28504655
148	0xbe65ab5e	-0.22428653
149	0x3ca6e8a8	0.020374611
150	0x3d45b904	0.048272148
151	0x3d7e7cd7	0.062130775
152	0x3db26ff7	0.08712762
153	0xbd89e057	-0.067322426
154	0x3da3a0d2	0.079896584
155	0xbdc58264	-0.09644011
156	0xbdaee05f	-0.08538889
157	0x3c9ac95d	0.018894846
158	0xbd7cd52f	-0.061726745
159	0x3d0a964d	0.033834744

bias f4 [10]
0	0x3e943599	0.28947142
1	0x3e83b4bc	0.25723827
2	0x3db40534	0.08790055
3	0xbe465615	-0.19368775
4	0xbe74ac1a	-0.23893777
5	0xbda00723	-0.07813861
6	0xbf6cc964	-0.924948
7	0xbed14106	-0.4086992
8	0x3f664f78	0.8996501
9	0xbc0e2054	-0.0086747
